legged_gym/logs/rough_go2/exported/policies/policy.pt (torch, 992110 bytes, 14 tensors)

weight f4 [512, 64]
-0.029874219 -0.05992895 0.06547365 -0.07335928 -0.038991395 -0.014011625 0.095557235 0.052193344
0.07534469 -0.12561713 -0.047594476 0.045096073 -0.118801884 0.027329605 -0.031871937 0.050165623
-0.09756423 -0.0642019 -0.070937395 0.08182895 -0.041420784 -0.12050833 -0.0058029015 0.078902364
0.03549444 0.09563166 0.036607526 0.037804972 -0.05911754 -0.03371542 -0.07107427 0.025678089
-0.09500288 -0.0361683 0.11445782 0.10256827 8.266562e-05 -0.12739585 0.060016464 0.008584524
-0.12701042 -0.06101426 -0.03010386 0.09532777 -0.10017513 0.051529642 0.001096437 0.12282197
-0.112264656 -0.11919537 0.013106412 -0.10489916 0.05577288 -0.0014652456 -0.080350384 -0.042223226
0.08514754 0.106986664 -0.056630947 0.09259404 -0.024078853 0.026381934 -0.09525276 0.06525773
-0.008203678 -0.10231213 0.052160975 -0.036355928 -0.025716517 -0.04463552 0.055173486 -0.11402468
0.06499281 -0.053267423 0.10496257 0.060866915 0.08394945 -0.09274192 -0.10198204 -0.0060889274
0.0042331466 0.030762192 0.08020906 -0.097618565 -0.011456602 -0.06641136 -0.036032934 0.072509855
-0.10129392 0.06685286 0.12019997 0.05884664 -0.083200954 0.061512068 0.014221313 -0.10980688
-0.07735958 0.05090388 -0.0707876 -0.11273533 0.11050239 -0.059542622 -0.032409966 -0.11709788
-0.11650871 -0.059026543 -0.028696872 -0.04075569 -0.07162167 0.05559265 0.07025283 -0.036853187
-0.03500656 -0.05938646 -0.070392795 -0.06811986 0.10740583 -0.0069923466 -0.027786203 0.03781344
0.06448464 -0.027037486 0.107819654 0.046979174 0.100834385 0.12531662 -0.032150064 0.10966375
0.09748135 0.08852022 -0.032158587 0.12180049 -0.013908652 -0.065206945 -0.08111323 0.07770983
-0.031517763 0.006621342 0.053223677 0.11809176 0.08686153 -0.0016679212 0.0059073605 -0.009948883
0.06260185 -0.107827686 0.024887012 -0.122054756 -0.048890714 0.062837884 -0.10363529 -0.08273337
-0.09378233 -0.100265786 -0.09617286 -0.03986257 -0.08679585 -0.096757725 0.0996778 0.095961556
0.0018427949 0.0406011 -0.011207036 -0.029152637 -0.06955019 0.041472618 0.067320414 -0.054586664
-0.036555495 -0.022600617 0.07486765 0.0016319 -0.006288396 -0.09673207 0.096997924 -0.0373948
-0.029223481 -0.061263993 0.005436298 0.022977022 -0.06420156 -0.031908836 -0.04306716 0.03175789
-0.056475583 0.073447466 0.061700165 -0.065848224 0.048654 -0.06812151 -0.07911626 -0.07507273
0.12146423 -0.062014762 0.09721754 -0.08524559 0.01772929 -0.07299273 0.09162446 -0.038212564
0.09984697 0.05061858 -0.117785856 0.051605776 -0.09463188 0.030131916 -0.048548333 0.09080091
0.12221663 0.11573186 0.032063436 0.10078454 0.067899324 0.03150466 -0.12523524 0.05770131
-0.023028048 0.055823516 0.096813485 -0.04742031 0.016289094 0.015204859 0.077377476 0.0036405828
-0.09656782 0.08547654 0.01017203 -0.022323266 0.10889763 -0.11172431 -0.10162234 0.056622405
0.087440774 -0.0060926056 0.044230454 -0.01542819 0.0507062 -0.04625696 -0.06452312 0.10467751
0.03569937 0.06398821 0.08340271 0.08857195 -0.1071768 0.043210264 -0.069880575 0.03884339
-0.015769387 0.020814471 -0.015425755 0.037264857 -0.021748535 0.050666474 0.10325673 0.017570034
00000000: c7ba f4bc 0f78 75bd 0d17 863d 643d 96bd
00000010: 71b5 1fbd 0491 65bc 83b3 c33d b0c8 553d
00000020: 514e 9a3d c7a1 00be 6df2 42bd a9b6 383d
00000030: 674e f3bd 56e2 df3c 268c 02bd 787a 4d3d
00000040: c1cf c7bd 497c 83bd a047 91bd f095 a73d
00000050: d7a8 29bd 12cd f6bd 4426 bebb 9097 a13d
00000060: 9e62 113d 88da c33d c6f1 153d 63d9 1a3d
00000070: 3c25 72bd 2e19 0abd 638f 91bd db5a d23c
00000080: df90 c2bd 3625 14bd dd68 ea3d 500f d23d
00000090: c45c ad38 0f74 02be d3d3 753d 1aa6 0c3c
000000a0: 050f 02be 17ea 79bd 5f9c f6bc 353b c33d
000000b0: 9e28 cdbd bf10 533d 52b6 8f3a 168a fb3d
000000c0: 03eb e5bd b41c f4bd 47bc 563c 5fd5 d6bd
000000d0: 1a72 643d 7c0d c0ba be8e a4bd 43f2 2cbd
000000e0: d561 ae3d d31b db3d daf5 67bd f2a1 bd3d
000000f0: 0441 c5bc ed1e d83c e113 c3bd d8a5 853d
00000100: b868 06bc 0689 d1bd bfa6 553d f4e9 14bd
00000110: 72ab d2bc bcd3 36bd 98fd 613d c585 e9bd
00000120: f31a 853d f12e 5abd 9ef6 d63d 964f 793d
00000130: b0ed ab3d 7aef bdbd f6db d0bd a085 c7bb
00000140: 35b6 8a3b fe00 fc3c a644 a43d 3eec c7bd
00000150: 79b4 3bbc ae02 88bd 4597 13bd 0c80 943d
00000160: 3073 cfbd 27ea 883d 672b f63d 2d09 713d
00000170: 4365 aabd 14f4 7b3d 8300 693c 6ee2 e0bd
00000180: b36e 9ebd 9680 503d 17f9 90bd c8e1 e6bd
00000190: 144f e23d f7e2 73bd 50c0 04bd 03d1 efbd
000001a0: 1e9c eebd d1c5 71bd b415 ebbc 70ef 26bd
000001b0: 62ae 92bd 1eb5 633d b7e0 8f3d 5ef3 16bd
000001c0: 0a63 0fbd 373f 73bd 192a 90bd 6d82 8bbd
000001d0: 96f7 db3d 0e20 e5bb e49f e3bc 44e2 1a3d
000001e0: 8610 843d b87d ddbc 8dd0 dc3d 3c6d 403d
000001f0: 4282 ce3d 0053 003e c9af 03bd 6397 e03d
00000200: 4da4 c73d 174a b53d b9b8 03bd 8972 f93d
00000210: 1de1 63bc 388b 85bd b11e a6bd 5526 9f3d
00000220: c518 01bd d8f7 d83b 1201 5a3d 18da f13d
00000230: 75e4 b13d 269e daba 8892 c13b a400 23bc
00000240: 6635 803d c3d4 dcbd d9df cb3c d8f7 f9bd
00000250: a141 48bd 26b1 803d bd3e d4bd 1d70 a9bd
00000260: f310 c0bd 2658 cdbd 47f6 c4bd ef46 23bd
00000270: 06c2 b1bd ea28 c6bd e023 cc3d 7e87 c43d
00000280: f089 f13a 574d 263d b79d 37bc 83d1 eebc
00000290: 5470 8ebd 31df 293d 49df 893d 4496 5fbd
000002a0: 37bb 15bd ee24 b9bc 3654 993d 7ae5 d53a
000002b0: e40e cebb 771b c6bd d9a6 c63d 4a2b 19bd
000002c0: 1566 efbc f4ef 7abd f922 b23b 4f3a bc3c
000002d0: 1c7c 83bd d7b2 02bd 3167 30bd 9014 023d
000002e0: f152 67bd a06b 963d 50b9 7c3d 6fdb 86bd
000002f0: 6b49 473d 4a83 8bbd b507 a2bd bbbf 99bd
00000300: 3dc2 f83d 3103 7ebd fd19 c73d 3d95 aebd
00000310: 043d 913c 367d 95bd 9ba5 bb3d c784 1cbd
00000320: 917c cc3d 6e55 4f3d b639 f1bd 9460 533d
00000330: 5cce c1bd 35d7 f63c 9eda 46bd d4f5 b93d
00000340: b64c fa3d d304 ed3d f354 033d 2068 ce3d
00000350: cd0e 8b3d 080b 013d ab3d 00be 3558 6c3d
00000360: 51a5 bcbc 33a7 643d 2646 c63d cd3b 42bd
00000370: b570 853c cd1d 793c 1578 9e3d d896 6e3b
00000380: 59c5 c5bd 530e af3d 96a8 263c 48df b6bc
00000390: b805 df3d b7cf e4bd 601f d0bd e5ec 673d
000003a0: 2614 b33d 7ba4 c7bb fe2a 353d 85c6 7cbc
000003b0: 4eb1 4f3d f077 3dbd b324 84bd 2a61 d63d
000003c0: 8139 123d 400c 833d 0acf aa3d 3665 b53d
000003d0: 837f dbbd 3ffd 303d 8c1d 8fbd 3f1a 1f3d
000003e0: cd2e 81bc 1c83 aa3c 4ebc 7cbc 09a3 183d
000003f0: fc29 b2bc a687 4f3d 4478 d33d 08ef 8f3c

bias f4 [512]
-0.02791766 -0.021069232 -0.12289009 0.0010351276 0.03201449 -0.08355653 -0.0058629387 -0.009452637
-0.04194244 -0.049905382 0.042036556 0.081714906 -0.08754969 -0.069914535 -0.090090975 0.04135551
-0.0886608 -0.07851094 0.009739576 -0.0064548464 -0.10006141 -0.0122598205 0.08625088 0.059955012
0.00235549 -0.08622333 0.09407737 0.044828773 -0.007866819 0.055417567 0.011444386 0.06265481
0.059944913 -0.067333445 0.10300712 0.11529661 0.098359466 0.0894688 0.08441778 -0.03048052
-0.110595785 0.09427049 -0.036858737 -0.038117487 0.08284327 0.074399255 -0.095781595 -0.11876786
-0.102089696 -0.05514082 0.036979772 0.017211031 -0.004248153 0.07522142 0.105650514 -0.068072885
-0.12064997 0.07681719 -0.040713184 0.020617431 0.04526627 -0.024214443 0.006048583 -0.008803353
0.09669698 0.07753587 -0.004256605 -0.02339246 0.054147225 0.11825566 0.10246079 0.06702561
0.09125465 -0.084203176 0.08578223 -0.05007139 0.06564388 -0.0059757167 -0.04570551 0.014706087
0.020573178 -0.12557885 0.053403962 0.06462785 -0.05440885 0.10423861 0.032921758 -0.007034667
-0.07554092 -0.058321215 -0.01722682 -0.04834787 0.09362124 -0.10047205 -0.107758604 0.09159245
0.04193863 0.101135716 0.0033041707 0.08484099 0.0081652915 0.03739205 -0.0028014858 0.05647651
0.05663263 -0.0969148 -0.0835345 0.08290272 0.11142364 0.015355595 0.054041483 0.0824035
-0.017565997 0.1112298 -0.11907244 -0.07259304 -0.09969132 0.044671677 -0.027659755 0.08903843
-0.018281246 0.10692756 0.0679191 0.0499071 -0.05639182 0.034025136 -0.05980019 0.11938392
-0.09993116 0.0076224566 0.090492584 0.009703895 -0.009633511 0.09067861 0.11260227 0.11499335
-0.0021396133 0.030024502 -0.064409986 0.10987628 0.0575907 0.07208978 0.033018477 0.111471735
-0.083219655 0.022471229 -0.042523727 -0.05054367 0.10276461 -0.0063845436 0.031144904 0.033895407
-0.070329845 0.09699926 0.014800642 0.11064689 -0.10773973 -0.10370601 -0.106778786 0.11315659
0.11952932 0.08777252 -0.034133054 0.053070936 -0.027229216 -0.05385951 0.10095889 0.06920397
0.06820199 0.022973219 -0.031615626 0.082842685 0.044150054 -0.11266841 -0.06860354 0.08684063
-0.04323583 -0.042958315 0.051792286 0.117567785 0.051493656 -0.010402344 0.048860107 0.05818985
-0.061378848 0.0864895 -0.038508207 -0.05031514 0.0910197 0.063453645 -0.090449624 -0.11838911
-0.02817537 -0.01694283 -0.01082719 0.10861641 -0.09186498 0.106878005 -0.10057942 -0.035543922
0.03160176 -0.10032994 -0.083237156 -0.12066673 0.0044997134 -0.050941065 -0.111691974 -0.00026473956
0.021703238 0.06406833 -0.11927006 0.006962382 -0.09579903 -0.010982497 0.083342314 -0.0068837334
0.002040153 0.078233644 -0.0037021027 0.078579165 0.08416731 0.112519726 0.0016331496 -0.040867936
-0.022032652 -0.0010562278 0.025960945 -0.07755672 -0.114906065 0.08276822 0.10977056 0.11197902
0.006325096 -0.018720547 -0.10032457 0.0061170342 0.08261207 -0.09327923 0.07178509 0.08536773
0.07010563 -0.10344809 0.06068557 -0.10039392 -0.07220644 0.05317937 0.017699195 0.0055827065
0.035946775 -0.091609836 0.091905706 -0.052423768 -0.021419685 -0.0823932 0.123685084 -0.014352312
00000000: 94b3 e4bc 6299 acbc cdad fbbd 1ead 873a
00000010: a021 033d b01f abbd e51d c0bb 3cdf 1abc
00000020: d6cb 2bbd 9669 4cbd 862e 2c3d 255a a73d
00000030: 404d b3bd 5a2f 8fbd 9e81 b8bd 6564 293d
00000040: cb93 b5bd 58ca a0bd be92 1f3c 2d83 d3bb
00000050: ffec ccbd 6add 48bc 4da4 b03d 6393 753d
00000060: 915e 1a3b db95 b0bd a3ab c03d 609e 373d
00000070: d5e3 00bc 88fd 623d 3c81 3b3c 2a51 803d
00000080: cc88 753d 1ee6 89bd 66f5 d23d a120 ec3d
00000090: b070 c93d 6b3b b73d 3be3 ac3d 49b2 f9bc
000000a0: 0b80 e2bd e310 c13d 30f9 16bd 1521 1cbd
000000b0: bba9 a93d a35e 983d 2429 c4bd 903c f3bd
000000c0: 6714 d1bd 57db 61bd 1a78 173d 26fe 8c3c
000000d0: 1734 8bbb b00d 9a3d 4c5f d83d cc69 8bbd
000000e0: 5517 f7bd 5552 9d3d dec2 26bd e3e5 a83c
000000f0: 2069 393d 5e5d c6bc 3133 c63b f03b 10bc
00000100: 1109 c63d 20cb 9e3d fe7a 8bbb 8ba1 bfbc
00000110: 7bc9 5d3d 0630 f23d f6d6 d13d b944 893d
00000120: b8e3 ba3d b772 acbd 98ae af3d a817 4dbd
00000130: 4c70 863d f2cf c3bb b335 3bbd cdf1 703c
00000140: 1589 a83c be97 00be 1dbe 5a3d 9b5b 843d
00000150: d0db 5ebd 0d7b d53d f7d8 063d 1083 e6bb
00000160: 33b5 9abd 3ae2 6ebd 431f 8dbc 6b08 46bd
00000170: 7ebc bf3d 4ac4 cdbd 8bb0 dcbd d394 bb3d
00000180: d7c7 2b3d 3e20 cf3d c98a 583b 1dc1 ad3d
00000190: b7c7 053c 6828 193d 2299 37bb ea53 673d
000001a0: 9ef7 673d 447b c6bd 2314 abbd e7c8 a93d
000001b0: 1432 e43d 0996 7b3c 9a5a 5d3d 2bc3 a83d
000001c0: 91e6 8fbc 73cc e33d 40dc f3bd a9ab 94bd
000001d0: f62a ccbd a6f9 363d b696 e2bc c859 b63d
000001e0: 8dc2 95bc d6fc da3d 2b19 8b3d 636b 4c3d
000001f0: 1cfb 66bd f15d 0b3d 0bf1 74bd 8f7f f43d
00000200: b5a8 ccbd cdc5 f93b 2d54 b93d 16fd 1e3c
00000210: e0d5 1dbc b5b5 b93d 059c e63d a281 eb3d
00000220: c138 0cbb f2f5 f53c 62e9 83bd d106 e13d
00000230: 3ae4 6b3d cea3 933d 623e 073d 4b4b e43d
00000240: 116f aabd 9515 b83c 5c2d 2ebd e106 4fbd
00000250: 4076 d23d 6f35 d1bb 9923 ff3c e9d5 0a3d
00000260: 1809 90bd 8ca7 c63d 647e 723c d69a e23d
00000270: a6a6 dcbd d163 d4bd d6ae dabd a4be e73d
00000280: cacb f43d 14c2 b33d 1acf 0bbd e960 593d
00000290: ce0f dfbc ca9b 5cbd 89c3 ce3d d0ba 8d3d
000002a0: 7cad 8b3d 5532 bc3c 637f 01bd 6da9 a93d
000002b0: b0d6 343d b2be e6bd 0380 8cbd 80d9 b13d
000002c0: 0e18 31bd 0ff5 2fbd 2624 543d 61c7 f03d
000002d0: 03eb 523d 986e 2abc 8921 483d 7b58 6e3d
000002e0: 6368 7bbd 6821 b13d c8ba 1dbd 4017 4ebd
000002f0: 8968 ba3d fcf3 813d a73d b9bd fd75 f2bd
00000300: 09d0 e6bc b1cb 8abc 8764 31bc 4872 de3d
00000310: b523 bcbd dbe2 da3d 95fc cdbd 8196 11bd
00000320: d970 013d c979 cdbd 3e78 aabd 1e20 f7bd
00000330: 5572 933b 94a7 50bd c3be e4bd becc 8ab9
00000340: fdca b13c 4236 833d dc43 f4bd b124 e43b
00000350: 4832 c4bd eeef 33bc 60af aa3d f190 e1bb
00000360: 16b4 053b f638 a03d fa9e 72bb 1dee a03d
00000370: e95f ac3d be70 e63d 680f d63a 2365 27bd
00000380: d27d b4bc 2071 8aba 0cac d43c 0fd6 9ebd
00000390: df53 ebbd 6282 a93d 63cf e03d 4255 e53d
000003a0: c042 cf3b d55b 99bc f876 cdbd 6771 c83b
000003b0: 8430 a93d 2e09 bfbd 1004 933d 47d5 ae3d
000003c0: 8a93 8f3d 98dc d3bd 6f91 783d 549b cdbd
000003d0: f8e0 93bd 9cd2 593d e7fd 903c 23ef b63b
000003e0: ed3c 133d f09d bbbd 0f39 bc3d 4eba 56bd
000003f0: 5678 afbc c4bd a8bd 9b4e fd3d f625 6bbc

weight f4 [256, 512]
-0.029992368 0.03356208 0.024205778 0.03636662 -0.042517256 -0.035480384 0.018039558 -0.030692006
-0.014581639 -0.030983923 0.016495861 -0.028858155 -0.01897382 0.009139588 -0.03346474 0.0070049195
-0.046648655 -0.008116481 0.026858218 0.016585698 -0.018853176 0.03423511 0.023157438 -0.035918534
-0.031542152 -0.01581121 -0.00632046 0.025155392 -0.031533152 0.015725639 0.022253074 -0.029468007
-0.038680952 0.034726404 -0.030692512 0.026231524 -0.012184241 -0.0100906305 -0.00421763 -0.0026329972
-0.013112016 0.024751442 0.015560707 -0.0060963817 0.03185485 0.022503555 -0.015917538 -0.04598976
-0.037023455 0.038254667 0.04004097 0.02513379 0.025521753 0.021096567 -0.0139087625 -0.023831785
-0.016445808 0.030786114 -0.029565876 0.010414818 0.034443174 0.030303175 -0.0021924085 -0.005923929
-0.016890865 0.0065285247 0.039013375 -0.038699545 0.0073906872 -0.034565844 0.02340783 -0.022033805
0.0058177975 0.014707705 0.0046351315 0.028290069 -0.0041876463 0.024990672 -0.03703666 0.034768816
-0.008209029 0.026645645 0.0416404 0.040565833 0.00636106 -0.04161863 0.017778648 0.04697973
0.025650166 -0.01783414 0.03714588 0.0018367604 0.0077046845 0.040717855 0.024550606 0.0071971253
0.03711016 -0.038883194 -0.0006943521 0.045783613 -0.03614559 0.02999761 -0.0104434965 0.0002002617
-0.008192293 -0.00345254 0.0063517196 -0.046554916 0.029872203 -0.033530787 -0.008753639 -0.012106097
-0.04108942 -0.03252558 0.04195345 0.039191123 0.029180521 0.032479733 -0.036565956 -0.022844212
-0.021433046 -0.0061694332 0.001985647 -0.03901658 0.016558722 -0.0034418004 -0.031180521 -0.015712244
-0.029282328 0.017006522 -0.017125152 -0.015931807 0.019738391 0.008724 0.04250901 -0.0175398
-0.009892448 -0.036464065 0.00915243 0.04608446 -0.033669528 -0.038070824 -0.029167114 -0.029243333
0.038822155 -0.03927133 0.019579899 0.033488717 -0.008635055 -0.018776564 -0.043591682 -0.003829103
0.044064626 -0.0061622 -0.007817797 -0.010880864 0.0020491946 -0.011728796 -0.036435053 -0.01958306
-0.022719165 0.028070377 -0.008594591 -0.016852714 0.04157034 -0.021224234 -0.045246936 0.013078627
-0.00805264 0.03447749 -0.00422839 0.015648 0.00025463384 0.03875101 0.013803113 -0.029780101
-0.020842664 0.02470037 -0.012105478 -0.0024231633 0.022493167 0.01756244 -0.019585934 -0.023592431
-0.00767114 0.03831276 -0.025788741 0.037713442 -0.028246952 0.03428471 0.033045456 -0.009602289
0.0059326617 0.04195255 -0.034189023 0.022344308 -0.003025667 0.01726958 -0.016531786 0.011890042
0.010821301 0.04116376 0.03523483 0.019885644 -0.041048184 -0.020512275 0.008476922 0.017836303
0.01917696 0.015619712 -0.010916561 0.015055275 -0.03921954 0.045416195 -0.0058626207 0.006762763
-0.007925339 0.022037167 0.022633806 -0.030139038 0.043532766 0.007922164 -0.0299486 -0.0032065853
-0.018061254 0.036114093 -0.018777205 -0.039879672 -0.034460325 0.03948027 -0.041411884 -0.006370204
-0.031860415 0.013554536 0.010357238 0.0076212594 -0.018934088 -0.03476313 -0.03945355 0.017473528
-0.027964579 -0.025225855 0.01910223 -0.038241513 -0.0091761425 -0.006697456 0.027479114 0.004561986
0.00650824 0.036120947 -0.0385234 -0.03838575 0.041687936 0.041249003 -0.034907553 -0.017476546
00000000: 8eb2 f5bc 6478 093d 324b c63c 2af5 143d
00000010: 9326 2ebd e153 11bd b2c7 933c cd6d fbbc
00000020: d4e7 6ebc ffd1 fdbc 5422 873c f067 ecbc
00000030: fc6e 9bbc 36be 153c 5312 09bd 8689 e53b
00000040: a912 3fbd fdfa 04bc c405 dc3c bbde 873c
00000050: fa71 9abc 1d3a 0c3d abb4 bd3c 501f 13bd
00000060: 5832 01bd 8386 81bc dc1b cfbb ae12 ce3c
00000070: e828 01bd 0ed3 803c 144c b63c e466 f1bc
00000080: eb6f 1ebd 463d 0e3d dd6e fbbc 7ee3 d63c
00000090: 69a0 47bc 2c53 25bc 0b34 8abb 5d8e 2cbb
000000a0: c8d3 56bc 89c3 ca3c 56f2 7e3c 28c4 c7bb
000000b0: 3b7a 023d 6059 b83c 7f65 82bc c25f 3cbd
000000c0: e8a5 17bd edb0 1c3d 0002 243d 61e5 cd3c
000000d0: ff12 d13c b5d2 ac3c 94e1 63bc e03a c3bc
000000e0: 5cb9 86bc 2933 fc3c 2334 f2bc eaa2 2a3c
000000f0: 4914 0d3d 5d3e f83c 83ae 0fbb 851d c2bb
00000100: b65e 8abc 3ced d53b 7dcc 1f3d 6a83 1ebd
00000110: 942d f23b ea94 0dbd c7c1 bf3c 3d80 b4bc
00000120: 39a3 be3b 96f8 703c 4de2 973b 93c0 e73c
00000130: 8638 89bb 3db9 cc3c c1b3 17bd bf69 0e3d
00000140: 2a7f 06bc f847 da3c 208f 2a3d 5c28 263d
00000150: 7070 d03b 4c78 2abd 87a4 913c d16d 403d
00000160: 4c20 d23c e718 92bc 4726 183d 74bf f03a
00000170: 9477 fc3b c4c7 263d 5a1e c93c ddd5 eb3b
00000180: d300 183d fc43 1fbd 2e05 36ba 9987 3b3d
00000190: 660d 14bd 8cbd f53c 331b 2bbc 57fd 5139
000001a0: f838 06bc 0244 62bb 1622 d03b 5eb0 3ebd
000001b0: 8db6 f43c 9457 09bd 6c6b 0fbc a758 46bc
000001c0: 614d 28bd 8b39 05bd 61d7 2b3d df86 203d
000001d0: fd0b ef3c 7809 053d 2fc6 15bd c923 bbbc
000001e0: 5b94 afbc f528 cabb a121 023b d9cf 1fbd
000001f0: 28a6 873c d48f 61bb 4b6e ffbc f7b6 80bc
00000200: 7ee1 efbc 4351 8b3c 0c4a 8cbc 6c83 82bc
00000210: 68b2 a13c 1cef 0e3c ed1d 2e3d a0af 8fbc
00000220: ef13 22bc 585b 15bd 13f4 153c 0fc3 3c3d
00000230: 0fe9 09bd 27f0 1bbd dfef eebc b78f efbc
00000240: fb03 1f3d f9da 20bd 0666 a03c 772b 093d
00000250: 0c7a 0dbc 4fd1 99bc 318d 32bd b0f1 7abb
00000260: 1c7d 343d 48ec c9bb 3816 00bc a745 32bc
00000270: c84b 063b 232a 40bc ec3c 15bd a76c a0bc
00000280: 8b1d babc d9f3 e53c 54d0 0cbc b40e 8abc
00000290: a945 2a3d 72de adbc da54 39bd bd47 563c
000002a0: 38ef 03bc 4538 0d3d 4e8e 8abb 3c30 803c
000002b0: 6080 8539 61b9 1e3d 7426 623c 66f5 f3bc
000002c0: 3cbe aabc 6e58 ca3c 0e56 46bc efcd 1ebb
000002d0: 9743 b83c 1bdf 8f3c ae72 a0bc ea44 c1bc
000002e0: 305e fbbb d7ed 1c3d e942 d3bc 6979 1a3d
000002f0: 2766 e7bc 206e 0c3d ac5a 073d eb52 1dbc
00000300: c666 c23b 70d6 2b3d ca09 0cbd 690b b73c
00000310: 454a 46bb ef78 8d3c ab6d 87bc 73ce 423c
00000320: d34b 313c 559b 283d 6652 103d 38e7 a23c
00000330: 2422 28bd 5c09 a8bc cae2 0a3c 701d 923c
00000340: 0019 9d3c d2e9 7f3c 60db 32bc 66aa 763c
00000350: aba4 20bd 5506 3a3d 3a1b c0bb 2b9a dd3b
00000360: 48d9 01bc 4a87 b43c 886a b93c 25e6 f6bc
00000370: 6a4f 323d f7cb 013c c456 f5bc 9325 52bb
00000380: 32f5 93bc 5fec 133d a7d2 99bc de58 23bd
00000390: 4526 0dbd 10b6 213d 829f 29bd 25bd d0bb
000003a0: 1180 02bd d813 5e3c 68b1 293c c2bb f93b
000003b0: a91b 9bbc c963 0ebd 0c9a 21bd a524 8f3c
000003c0: f915 e5bc 74a6 cebc 487c 9c3c 22a3 1cbd
000003d0: 8857 16bc 5576 dbbb e11b e13c b67c 953b
000003e0: 1343 d53b 8ff3 133d b6ca 1dbd 603a 1dbd
000003f0: f8c0 2a3d b7f4 283d 39fb 0ebd f92a 8fbc

bias f4 [256]
0.028146869 -0.042807534 0.024761232 0.024439214 -0.02039448 0.026220065 0.031294525 0.030561833
0.0050421 0.017563855 0.040992334 -0.02217729 0.023118807 -0.0049746316 -0.010286118 0.04106457
-0.04453256 -0.001873924 0.008597955 0.04123121 0.025041997 -0.0077463486 -0.029772187 -0.026748257
0.015571432 0.030983869 -0.0046225027 -0.04398942 0.0078392485 -0.0390611 0.045187548 -0.018182635
0.021069298 -0.015020019 -0.002946549 0.02630473 -0.041135646 0.024894355 0.027432874 -0.030152597
-0.02663656 0.027891861 -0.031309772 -0.023900382 -0.0027069116 -0.02987506 0.008069246 0.027999828
0.023352373 -0.002543484 0.0018298425 0.032375354 0.0073303506 0.024431556 -0.016166376 -0.02661475
0.03543687 -0.034810025 -0.027401492 -0.006611071 -0.039048284 0.03375516 -0.03877791 0.02536809
0.03135977 -0.016011564 0.036360588 0.0050691366 0.009288653 -0.010826689 0.037861187 0.02495243
-0.022598732 -0.001219198 -0.022623174 -0.02084955 0.0174995 -0.013278186 0.025499208 0.03384128
0.018841736 0.02481772 0.025427256 -0.011905299 0.025495285 0.014866892 -0.0019464819 0.008200751
0.03150876 0.03649457 0.0061964123 -0.0066395625 -0.013556461 0.04021299 -0.034174614 -0.03377628
-0.0027849788 0.006144159 -0.005836505 0.037622865 -0.0034556256 -0.00019997028 -0.016176263 0.020448849
0.023068244 -0.038637 -0.03095773 -0.03661686 0.014557641 0.012616371 -0.03179879 -0.040439658
0.008241248 -0.028358461 0.043831516 0.044556372 0.03862501 0.011422214 -0.027403176 -0.026811022
-0.0420129 0.03826337 0.026778674 -0.02832024 -0.03224473 0.009123632 0.012716383 0.043234065
0.023819728 0.035769805 -0.0019239659 -0.03536242 -0.028945988 -0.014745942 -0.0140962545 -0.016061958
0.019103186 -0.006095843 -0.033033956 0.027396424 0.023274839 0.03799642 0.038727053 0.01677725
-0.038266294 0.020082153 -0.029202018 0.017800823 0.027023764 0.024596496 -0.024963241 0.0323751
0.013207563 -0.005002392 -0.0005420782 -0.006878656 -0.021264898 -0.00065784797 0.021682518 0.00095876516
-0.0051136278 0.024327332 0.039724436 -0.013552965 -0.006003105 -0.03901618 0.0069924 0.019335052
0.012191509 0.015265227 0.011679898 0.014372378 0.019689979 0.00567184 -0.006773567 -0.028916236
-0.029549737 0.039548077 -0.037537947 -0.04508208 -0.040662527 0.0052961335 0.041522235 0.018100498
-0.026663685 0.04108424 -0.019615697 -0.04347981 0.02456123 0.010821956 -0.023269232 0.012936925
-0.034115218 0.031370092 0.037987415 -0.010038372 0.031242061 -0.018773338 -0.034905903 -0.042314395
0.024872262 -0.029758217 -0.02681827 0.021071209 -0.017898265 -0.0002696321 0.036861498 -0.016537482
0.009029401 0.016790237 -0.022288775 -0.018293772 0.0071186214 0.021901298 -0.034824304 0.0031255728
0.014148685 -0.029380908 -0.020534083 0.03809475 -0.03658908 -0.03756207 -0.006679051 0.03072629
0.03611511 0.03380555 -0.03915213 -0.029236386 0.04164069 -0.030050987 0.0028643997 -0.026660196
-0.024689479 -0.029361216 0.015690578 0.0010932836 0.012637142 0.035478152 -0.038597252 -0.037930228
0.02453228 -0.034903917 -0.034955088 0.012313779 0.0047936565 0.04471147 0.035734728 0.0022873455
-0.0036236944 0.010689314 -0.029213402 -0.008423808 -0.03848779 0.0031982693 -0.014570779 -0.012887116
00000000: 4394 e63c f456 2fbd 11d8 ca3c bf34 c83c
00000010: 5312 a7bc 76cb d63c b02e 003d cf5c fa3c
00000020: 3338 a53b 13e2 8f3c 94e7 273d 26ad b5bc
00000030: a763 bd3c 3c02 a3bb 1b87 28bc 5333 283d
00000040: c667 36bd 759e f5ba 70de 0c3c 0fe2 283d
00000050: e024 cd3c 15d5 fdbb cde4 f3bc 291f dbbc
00000060: 521f 7f3c e2d1 fd3c 5d78 97bb 402e 34bd
00000070: 3170 003c 88fe 1fbd 9416 393d c0f3 94bc
00000080: 8599 ac3c 8716 76bc e41a 41bb 047d d73c
00000090: da7d 28bd 3fef cb3c e8ba e03c 9402 f7bc
000000a0: ea34 dabc 797d e43c ad3e 00bd bcca c3bc
000000b0: 7166 31bb 8bbc f4bc df34 043c e55f e53c
000000c0: 7a4d bf3c 95b0 26bb 53d7 ef3a 059c 043d
000000d0: 7033 f03b b024 c83c 596f 84bc 2d07 dabc
000000e0: 4026 113d f594 0ebd 1879 e0bc afa1 d8bb
000000f0: 18f1 1fbd da42 0a3d 96d5 1ebd bed0 cf3c
00000100: 1a73 003d af2a 83bc d7ee 143d 001b a63b
00000110: 6f2f 183c 6d62 31bc 5514 1b3d 0a69 cc3c
00000120: fa20 b9bc 7fcd 9fba 3c54 b9bc adcc aabc
00000130: 1d5b 8f3c c08c 59bc b7e3 d03c 279d 0a3d
00000140: fc59 9a3c 884e cb3c d24c d03c 710e 43bc
00000150: 7ddb d03c 4494 733c 1821 ffba 715c 063c
00000160: 540f 013d 557b 153d 460b cb3b b090 d9bb
00000170: eb1b 5ebc 60b6 243d aefa 0bbd ff58 0abd
00000180: 3184 36bb f154 c93b 2740 bfbb 6f1a 1a3d
00000190: c777 62bb 1daf 51b9 1584 84bc 5884 a73c
000001a0: 9df9 bc3c d541 1ebd 119b fdbc 90fb 15bd
000001b0: 2c83 6e3c e5b4 4e3c 733f 02bd 0ea4 25bd
000001c0: 4d06 073c 0150 e8bc ad88 333d be80 363d
000001d0: 4235 1e3d 3d24 3b3c a07c e0bc caa2 dbbc
000001e0: b815 2cbd 0dba 1c3d f35e db3c d9ff e7bc
000001f0: 0d13 04bd 497b 153c 6058 503c 3416 313d
00000200: 9721 c33c 5c83 123d 952d fcba 2fd8 10bd
00000210: 2320 edbc f798 71bc faf3 66bc 5e94 83bc
00000220: 497e 9c3c a3bf c7bb 9d4e 07bd 776e e03c
00000230: e0aa be3c 22a2 1b3d 42a0 1e3d 7270 893c
00000240: 1ebd 1cbd 5483 a43c 1239 efbc 08d3 913c
00000250: f160 dd3c 977e c93c b67f ccbc c19b 043d
00000260: 8964 583c 1beb a3bb 411a 0eba 5966 e1bb
00000270: b933 aebc 6e73 2cba 899f b13c a455 7b3a
00000280: 3890 a7bb 1d4a c73c 17b6 223d 410d 5ebc
00000290: b2b5 c4bb 6ecf 1fbd 8120 e53b 8b64 9e3c
000002a0: e5be 473c 011b 7a3c 0b5d 3f3c 1f7a 6b3c
000002b0: e14c a13c d8da b93b ccf4 ddbb bee1 ecbc
000002c0: 4a12 f2bc 2afd 213d 64c1 19bd fda7 38bd
000002d0: c08d 26bd 308b ad3b 3813 2a3d 7f47 943c
000002e0: cd6d dabc f347 283d 19b1 a0bc e317 32bd
000002f0: a234 c93c 934e 313c 1e9f bebc 65f5 533c
00000300: 66bc 0bbd ed7d 003d b198 1b3d fc77 24bc
00000310: 5aef ff3c 8bca 99bc 7ef9 0ebd dc51 2dbd
00000320: eac0 cb3c 81c7 f3bc fdb1 dbbc 879d ac3c
00000330: 629f 92bc 685d 8db9 15fc 163d 9d79 87bc
00000340: 0df0 133c ae8b 893c f396 b6bc d2dc 95bc
00000350: 5343 e93b 5a6a b33c eea3 0ebd 69d6 4c3b
00000360: e3cf 673c 3bb0 f0bc 1837 a8bc 3e09 1c3d
00000370: 6ede 15bd afda 19bd f1db dabb b3b5 fb3c
00000380: 70ed 133d b077 0a3d fc5d 20bd 2581 efbc
00000390: 6e8f 2a3d 7d2d f6bc a7b8 3b3b 7c66 dabc
000003a0: 9741 cabc ef86 f0bc 8789 803c 834c 8f3a
000003b0: 040c 4f3c 8a51 113d 2718 1ebd ba5c 1bbd
000003c0: ecf7 c83c 69f7 0ebd 112d 0fbd bcbf 493c
000003d0: 1b14 9d3b 6023 373d 945e 123d 4ae7 153b
000003e0: 817b 6dbb 3c22 2f3c f250 efbc 0304 0abc
000003f0: 5fa5 1dbd 0e9a 513b 47ba 6ebc 7b24 53bc

weight f4 [128, 256]
0.027492184 -0.06448055 -0.052707188 0.0024562897 -0.02288545 0.025831183 -0.047928773 0.046037063
0.009527727 -0.04642641 -0.056969408 -0.036469575 -0.049808957 -0.013464493 0.007290687 0.0123297805
0.0504922 -0.0019499102 -0.016690537 0.03937784 -0.042582635 -0.005384117 -3.1463464e-05 0.016611801
-0.017087275 0.05406907 0.006165268 -0.03325944 -0.025715454 0.0011465874 0.02642986 -0.03991519
0.048370156 -0.0022368624 -0.042525813 -0.059338562 0.0649526 -0.058239903 -0.058015324 -0.022021871
0.060540244 -0.039908033 0.007873155 -0.03353496 -0.03751876 -0.008722291 0.00071712927 0.024017358
0.02561364 -0.06043155 -0.019041717 0.012615013 0.014616696 0.015257685 -0.053654797 -0.00045182492
-0.0033167584 -0.0457735 -0.036527384 -0.050549775 -0.06373156 0.024967685 -0.05525007 0.013086481
-0.059713095 0.002981536 -0.035272878 -0.018812962 0.0027729347 -0.0014649254 -0.019787388 -0.0015747825
-0.052028004 -0.01399118 0.022813506 0.058390003 0.02089961 0.019819712 -0.05172226 -0.021134261
0.03188239 -0.05974906 -0.043447275 0.023811335 0.063397326 -0.024274513 -0.033283804 0.018709028
-0.027001046 -0.054386064 0.0076602534 -0.021882372 -0.05106562 -0.03483623 0.0031702 0.047047287
-0.036314476 -0.060025856 0.027223537 -0.059723154 -0.032970984 0.029901728 -0.047332585 -0.047825944
0.047208227 -0.048896212 0.040453415 0.04641797 -0.056423943 -0.052580826 0.044190224 -0.028471837
0.040070344 -0.018437382 0.015414905 0.05881921 -0.018950123 0.043175653 0.027743736 0.06457148
0.052952107 -0.028280765 0.007139366 0.016479598 0.03589568 0.010617911 0.010510778 0.019007068
-0.016989155 0.025354875 -0.011807643 -0.019767525 -0.05276568 -0.055177744 0.018023051 -0.05125014
-0.04317346 -0.037408598 0.05792839 -0.04142236 -0.019776246 -0.039834246 -0.04453687 0.017091442
-0.019673184 0.05076128 0.023863124 -0.0009312344 -0.018958945 -0.032141123 -0.0071790544 0.007697753
-0.04430754 -0.014355835 -0.04047437 -0.035690226 0.046414647 -0.017558824 -0.019896552 -0.023675628
0.011605247 -0.018168006 -0.04959003 0.029023863 0.055890232 0.036037445 -0.019031929 0.06065559
-0.003414503 -0.009421747 0.049257293 0.055574805 -0.011176429 0.037930366 -0.0023855022 0.022417089
-0.037457332 0.013650468 0.0264575 0.049315907 -0.0033100762 0.026865268 0.02949035 0.058034647
-0.011457779 -0.009214527 0.0076817097 -0.031740002 -0.026342126 -0.017018093 -0.009212748 -0.060548086
0.035146248 0.03172603 0.05513531 -0.017587593 -0.013177294 0.034631763 0.0107412785 0.0544384
-0.01666322 -0.038382795 0.025598578 0.048589513 -0.039481916 -0.03963608 0.012129198 0.038001657
-0.014684713 0.017675752 -0.044412695 -0.033223692 0.04610086 -0.00019333877 -0.031301178 0.042287104
0.025529202 0.05522427 0.012969893 0.030344844 0.04020338 0.0028482063 -0.003562762 -0.040635515
0.054175604 0.038381044 -0.06324739 0.044526927 0.0099771265 -0.033532735 0.062926374 -0.0009550031
-0.041407205 -0.04117356 0.050027434 -0.020765325 -0.0548909 0.051202368 -0.021133436 -0.012237998
0.0066809575 -0.026014086 -0.009331975 -0.064552985 -0.0120885465 0.024725037 0.0244013 -0.03555177
-0.02367221 -0.018507142 -0.020252883 0.04138181 -0.017984834 -0.013020596 0.04634462 0.03727112
00000000: 4a37 e13c 610e 84bd 7ee3 57bd b4f9 203b
00000010: 447a bbbc eb9b d33c f650 44bd 5c91 3c3d
00000020: 2f1a 1c3c 9f29 3ebd c158 69bd 1f61 15bd
00000030: 7a04 4cbd 2d9a 5cbc b7e6 ee3b d902 4a3c
00000040: e9d0 4e3d 2194 ffba 98ba 88bc a84a 213d
00000050: 216b 2ebd 3f6d b0bb a3f7 03b8 7915 883c
00000060: 9dfa 8bbc 8777 5d3d 0406 ca3b 0d3b 08bd
00000070: 37a9 d2bc 1749 963a 6f83 d83c 1c7e 23bd
00000080: c91f 463d 5398 12bb 8c2f 2ebd fe0c 73bd
00000090: de05 853d f78c 6ebd 7aa1 6dbd 3667 b4bc
000000a0: 0cf9 773d 9b76 23bd 68fe 003c f45b 09bd
000000b0: 45ad 19bd f1e7 0ebc bbfd 3b3a 0dc0 c43c
000000c0: b2d3 d13c 1387 77bd 60fd 9bbc 33af 4e3c
000000d0: de7a 6f3c 5ffb 793c 22c5 5bbd eae2 ecb9
000000e0: f95d 59bb fe7c 3bbd bd9d 15bd 480d 4fbd
000000f0: b185 82bd 0889 cc3c e64d 62bd ae68 563c
00000100: b895 74bd e065 433b 4b7a 10bd a41d 9abc
00000110: 20ba 353b bd02 c0ba 2919 a2bc ef68 ceba
00000120: 511b 55bd 433b 65bc 64e3 ba3c 5b2a 6f3d
00000130: a935 ab3c f35c a23c b8da 53bd c221 adbc
00000140: 1c97 023d 6ebb 74bd c5f5 31bd fd0f c33c
00000150: 75d6 813d 58db c6bc 9954 08bd ad43 993c
00000160: 4c31 ddbc ecc3 5ebd dd02 fb3b a942 b3bc
00000170: 2f2a 51bd 6fb0 0ebd 21c3 4f3b a8b4 403d
00000180: 7dbe 14bd acdd 75bd e503 df3c 44a0 74bd
00000190: 950c 07bd 78f4 f43c d0df 41bd 23e5 43bd
000001a0: 6a5d 413d 6547 48bd 7bb2 253d c520 3e3d
000001b0: cb1c 67bd fe5e 57bd cf00 353d c53d e9bc
000001c0: cd20 243d fe09 97bc cc8e 7c3c 69ec 703d
000001d0: 4a3d 9bbc f4d8 303d d546 e33c 0d3e 843d
000001e0: 4fe4 583d 10ad e7bc 58f1 e93b 3900 873c
000001f0: 5907 133d bff6 2d3c 6635 2c3c b6b4 9b3c
00000200: d72c 8bbc 07b5 cf3c d874 41bc 81ef a1bc
00000210: d320 58bd 0f02 62bd 14a5 933c abeb 51bd
00000220: a7d6 30bd c239 19bd 5246 6d3d 7eaa 29bd
00000230: cb01 a2bc 3c29 23bd 4b6c 36bd 5a03 8c3c
00000240: a829 a1bc 0feb 4f3d 997c c33c 151e 74ba
00000250: ca4f 9bbc 69a6 03bd 463e ebbb 6f3d fc3b
00000260: d37b 35bd bc34 6bbc 74c8 25bd ea2f 12bd
00000270: 491d 3e3d 86d7 8fbc 18fe a2bc 64f3 c1bc
00000280: ef23 3e3c 12d5 94bc ea1e 4bbd 74c3 ed3c
00000290: 28ed 643d 009c 133d d9e8 9bbc ff71 783d
000002a0: dbc5 5fbb ac5d 1abc 04c2 493d 68a2 633d
000002b0: 571d 37bc df5c 1b3d 1656 1cbb 0ba4 b73c
000002c0: dc6c 19bd 36a6 5f3c 66bd d83c 7aff 493d
000002d0: dded 58bb 8d14 dc3c bf95 f13c bdb5 6d3d
000002e0: 69b9 3bbc 87f8 16bc dab6 fb3b ce01 02bd
000002f0: 71cb d7bc 8769 8bbc 11f1 16bc 4501 78bd
00000300: 83f5 0f3d 27f3 013d 90d5 613d db13 90bc
00000310: 94e5 57bc 09da 0d3d 30fc 2f3c cdfa 5e3d
00000320: 4e81 88bc 4737 1dbd 1cb4 d13c cc05 473d
00000330: cab7 21bd 7159 22bd 8bb9 463c a0a7 1b3d
00000340: 2798 70bc bdcc 903c 16ea 35bd 9115 08bd
00000350: 41d4 3c3d fbba 4ab9 aa35 00bd 3e35 2d3d
00000360: 9e22 d13c d832 623d ad7f 543c c095 f83c
00000370: 4dac 243d f9a8 3a3b 3a7d 69bb 6d71 26bd
00000380: 3de7 5d3d 7135 1d3d d987 81bd de61 363d
00000390: 1a77 233c 9f59 09bd 8bdf 803d 2c59 7aba
000003a0: 9a9a 29bd 9ba5 28bd 91e9 4c3d 0b1c aabc
000003b0: 48d5 60bd 93b9 513d 0720 adbc e281 48bc
000003c0: efeb da3b 7e1b d5bc 24e5 18bc 5b34 84bd
000003d0: 0a0f 46bc 298c ca3c 3ce5 c73c bc9e 11bd
000003e0: 39ec c1bc 4a9c 97bc 60e9 a5bc f97f 293d
000003f0: ee54 93bc 5654 55bc dbd3 3d3d 9aa9 183d

bias f4 [128]
0.029170766 0.035702188 0.022568611 0.05401453 -0.052018717 0.04715704 -0.045224376 0.05661846
0.038218863 0.015222281 -0.016928598 -0.021198876 0.02139676 0.04224588 0.0028508932 -0.04313045
0.057702232 -0.054034296 -0.0441998 0.059288364 0.031145507 0.03187741 0.027585046 0.04075712
0.014664245 -0.063277245 -0.026447825 -0.011160406 0.02186551 0.0037626314 0.0037310314 0.00090508786
0.0476327 -0.019279253 -0.0476887 -0.023545567 -0.06251964 -0.020862872 -0.013820919 -0.039897997
-0.0002174038 0.055678394 0.014582621 -0.04385142 0.056099333 -0.007502854 -0.0203247 -0.01542432
0.023261495 -0.0017521366 -0.062081363 -0.026432134 -0.016641462 -0.06046031 0.05212753 -0.022919936
-0.031571936 0.049880803 -0.009652877 -0.045557443 0.009055712 0.055327218 -0.051331013 0.02495201
-0.05434946 -0.03231398 0.030179983 0.0027557712 -0.052299686 0.008433497 0.019147187 0.025320238
-0.016328048 0.020568138 -0.064540915 0.030654656 -0.032505866 -0.02636033 0.055893168 0.012366714
0.054913774 0.0482571 0.02561855 0.04869711 0.019018024 0.06388833 -0.010172815 0.048241753
0.0391155 0.057012398 0.013381034 0.003890273 -0.045439333 -0.010892434 0.010499261 0.017688114
0.01211292 0.050326094 0.048927315 -0.0486375 0.056933984 -0.03675471 -0.057880677 0.05168242
-0.048751842 -0.007886467 -0.01875029 0.0049776556 -0.034672715 -0.028275289 0.023473037 0.04236186
0.006335667 -0.02990532 -0.032626804 -0.02908978 -0.06512689 -0.036435355 -0.0025974824 -0.01349584
0.045614067 0.042394564 0.057638776 0.01981462 -0.016936827 0.011082475 0.033792596 0.051170293
00000000: 88f7 ee3c 753c 123d cfe1 b83c 573e 5d3d
00000010: 9411 55bd be27 413d 323d 39bd c2e8 673d
00000020: 628b 1c3d e066 793c d8ad 8abc 44a9 adbc
00000030: 4248 af3c 040a 2d3d 0dd6 3a3b 8ea9 30bd
00000040: 2d59 6c3d 1153 5dbd d90a 35bd 5bd8 723d
00000050: dd24 ff3c e391 023d 09fa e13c f0f0 263d
00000060: 4d42 703c 8097 81bd 1ca9 d8bc 23da 36bc
00000070: 4c1f b33c 7b96 763b 5284 743b 6b43 6d3a
00000080: 821a 433d 86ef 9dbc 3a55 43bd a2e2 c0bc
00000090: 4c0a 80bd 9de8 aabc 2371 62bc 156c 23bd
000000a0: e3f6 63b9 070f 643d f2eb 6e3c 8c9d 33bd
000000b0: 6ac8 653d 80da f5bb fc7f a6bc 49b6 7cbc
000000c0: e48e be3c f3a7 e5ba 0749 7ebd 3488 d8bc
000000d0: ad53 88bc 3ba5 77bd ad83 553d 97c2 bbbc
000000e0: 9351 01bd d04f 4c3d 1a27 1ebc 719a 3abd
000000f0: 695e 143c cb9e 623d 7840 52bd 2868 cc3c
00000100: 8a9d 5ebd aa5b 04bd 033c f73c 2b9a 343b
00000110: 3238 56bd a62c 0a3c 90da 9c3c 636c cf3c
00000120: 66c2 85bc 837e a83c 072e 84bd 791f fb3c
00000130: df24 05bd 9ef1 d7bc 3cf0 643d c29d 4a3c
00000140: 44ed 603d 3da9 453d fedd d13c 9f76 473d
00000150: b0cb 9b3c e2d7 823d e1ab 26bc 2599 453d
00000160: 9337 203d d585 693d 203c 5b3c f3f3 7e3b
00000170: 981e 3abd 2e76 32bc 1805 2c3c aae6 903c
00000180: 4575 463c bc22 4e3d 0268 483d 1d38 47bd
00000190: 9c33 693d 1b8c 16bd 4a14 6dbd f2b0 533d
000001a0: 03b0 47bd 3d36 01bc 359a 99bc 9a1b a33b
000001b0: fa04 0ebd 94a1 e7bc 874a c03c a183 2d3d
000001c0: 6d9b cf3b 00fc f4bc afa3 05bd b14d eebc
000001d0: 3f61 85bd 3d3d 15bd 863a 2abb a81d 5dbc
000001e0: d1d5 3a3d eca5 2d3d a316 6c3d 4552 a23c
000001f0: 1abf 8abc 4593 353c 1b6a 0a3d f197 513d

weight f4 [12, 128]
0.0055868994 -0.06948103 -0.022553883 -0.0777669 -0.051421463 0.06755098 0.057512924 -0.05000952
-0.07024869 0.05531232 0.052725375 0.036126107 0.053968463 -0.023645027 -0.035798214 0.08247416
0.025735853 0.08232545 -0.08075185 -0.04305606 -0.042006273 -0.059554197 -0.07983657 -0.010208074
0.045946028 -0.026211426 -0.035959944 0.033686407 0.02676505 0.053278007 0.03132583 0.06402841
0.05538982 -0.07795713 -0.0653201 0.017581016 0.03366192 -0.0022711984 0.06968435 0.048887853
0.019701557 -0.0794286 0.010778809 -0.08568405 0.020612845 0.05102474 -0.0837211 -0.06820198
-0.04743452 -0.037481003 0.09077418 0.065886475 -0.07910098 -0.06678898 -0.04022217 -0.07535939
-0.076859646 -0.03452574 -0.06546233 0.043002192 -0.05853966 0.012905044 0.017075157 -0.04250913
-0.04716853 0.08518695 0.015767405 0.082476616 0.047463086 0.08268468 -0.05083946 0.071984135
-0.05707871 0.077677146 0.0058987904 0.044054754 0.064696096 -0.04960525 0.04984343 -0.03526933
0.079296656 -0.032177605 0.043372966 0.055899728 0.019420557 0.03726673 0.08026195 -0.08363083
-0.049511187 -0.05638297 0.08512082 -0.059218664 -0.03018498 -0.04335525 0.026835945 -0.011057623
-0.075791545 0.05095605 0.03345205 0.071345635 0.07598182 -0.009135507 -0.0062033194 -0.08417809
0.0162938 0.079524964 -0.042428784 0.06483209 0.0835505 -0.031463306 -0.050934125 0.041756503
0.025922282 -0.02078988 0.07917024 0.08968653 0.027840048 0.055756595 0.023814179 0.0332267
-0.034410305 0.01322567 -0.043359198 0.072369196 0.06601439 0.0002683521 0.026765088 -0.031246085
-0.05521749 0.023167945 -0.08545643 0.0080563305 0.06205736 -0.014080265 -0.046166148 0.05292169
0.0013271084 0.07484009 0.008911865 -0.073456846 0.050147064 0.07890951 0.04441727 0.03790148
0.057801716 -0.022614133 -0.027376853 -0.064840674 0.055795763 0.032378662 0.05599852 -0.04567968
0.0021362333 0.02436077 -0.036920823 0.04997367 -0.030084176 -0.07241005 -0.053894185 -0.06877324
0.027765004 -0.0050969343 0.080931164 0.00828084 0.06104308 -0.047558974 0.08360974 0.021146381
-0.082601145 -0.030073734 -0.014671954 0.020408448 0.06538302 0.041419864 0.06580486 -0.08077194
0.053689804 0.04504578 0.03773952 -0.029706297 -0.020841543 -0.05068615 0.04116792 -0.0571264
-0.058096126 -0.035292145 0.066162065 0.024152406 -0.046196446 0.016546287 0.011629137 -0.034005426
-0.061111487 -0.04547071 -0.07239046 -0.008554315 0.046039578 0.07518265 0.00021055975 0.07475928
0.05912869 0.07316861 0.023008347 -0.050350755 0.047345106 -0.061935864 0.08568452 0.069019884
0.034017637 0.012458735 -0.043181967 0.07477091 -0.072542414 -0.0034440395 0.019543597 0.0019169874
-0.02971761 -0.064931065 0.08185674 -0.011985971 0.06299077 0.030256907 0.036807556 0.08585559
-0.035062086 0.08231819 -0.06094151 0.08767012 -0.019151578 -0.07161414 0.013260781 -0.04382095
-0.06149172 0.05816194 0.08996209 0.071373805 -0.06602466 0.06292754 0.08522912 0.03406276
0.019694095 0.009464807 0.04614521 0.053436805 -0.0388868 0.0015348285 -0.06104468 0.05777583
0.05682524 0.0813523 0.04683109 0.06900016 0.040804416 -0.07927664 -0.0547716 -0.054654684
00000000: 4f12 b73b 124c 8ebd ecc2 b8bc 4144 9fbd
00000010: 509f 52bd 2b58 8a3d ac92 6b3d c8d6 4cbd
00000020: 8cde 8fbd 2c8f 623d 90f6 573d f8f8 133d
00000030: 090e 5d3d 37b3 c1bc 26a1 12bd 36e8 a83d
00000040: ffd3 d23c 3f9a a83d 3a61 a5bd 8d5b 30bd
00000050: c50e 2cbd 1aef 73bd 5b81 a3bd c43f 27bc
00000060: e731 3c3d 58b9 d6bc bc4a 13bd c2fa 093d
00000070: 6142 db3c 0a3a 5a3d 834f 003d 5421 833d
00000080: 70e0 623d fda7 9fbd 8bc6 85bd 1006 903c
00000090: 15e1 093d 63d8 14bb abb6 8e3d a13e 483d
000000a0: 2965 a13c 76ab a2bd 9a99 303c 1f7b afbd
000000b0: 45dc a83c 51ff 503d f875 abbd 7bad 8bbd
000000c0: b34a 42bd ae85 19bd d0e7 b93d 7def 863d
000000d0: b2ff a1bd a9c8 88bd 01c0 24bd 0656 9abd
000000e0: 9768 9dbd dd6a 0dbd 1d11 86bd 1123 303d
000000f0: 48c7 6fbd ad6f 533c 33e1 8b3c 0e1e 2ebd
00000100: ca33 41bd 7f76 ae3d a52a 813c 80e9 a83d
00000110: a768 423d 9656 a93d 0a3d 50bd 6b6c 933d
00000120: 5ecb 69bd 3215 9f3d a44a c13b c272 343d
00000130: 637f 843d e02e 4bbd a028 4c3d 9376 10bd
00000140: 4966 a23d aacc 03bd daa7 313d 1df7 643d
00000150: dc17 9f3c 00a5 183d 6160 a43d a446 abbd
00000160: 3ecc 4abd d4f1 66bd d353 ae3d 458f 72bd
00000170: 7e46 f7bc 4695 31bd 0ed7 db3c 082b 35bc
00000180: 9938 9bbd 4bb7 503d 0405 093d a91d 923d
00000190: 5b9c 9b3d 18ad 15bc 3745 cbbb 9065 acbd
000001a0: 937a 853c fcdd a23d cec9 2dbd b0c6 843d
000001b0: 861c ab3d abdf 00bd 4da0 50bd de08 2b3d
000001c0: f75a d43c 8a4f aabc 0224 a23d 92ad b73d
000001d0: d010 e43c 0761 643d f415 c33c b818 083d
000001e0: d2f1 0cbd 7bb0 583c 6a99 31bd 4d36 943d
000001f0: 8d32 873d 9cb1 8c39 7542 db3c caf7 ffbc
00000200: bc2b 62bd b4ca bd3c c803 afbd b3fe 033c
00000210: dc2f 7e3d e9b0 66bc b718 3dbd 6ac4 583d
00000220: 5ef2 ad3a c345 993d 1203 123c 8b70 96bd
00000230: 0267 4d3d 4f9b a13d e2ee 353d 953e 1b3d
00000240: 7ec1 6c3d 4641 b9bc 6c45 e0bc 30cb 84bd
00000250: 198a 643d 7d9f 043d b45e 653d 9e1a 3bbd
00000260: 0c00 0c3b 3d90 c73c 4a3a 17bd 31b1 4c3d
00000270: 1773 f6bc b84b 94bd 26c0 5cbd fcd8 8cbd
00000280: 6f73 e33c 2f04 a7bb 3dbf a53d 5cac 073c
00000290: 4f08 7a3d 33cd 42bd 953b ab3d 2d3b ad3c
000002a0: ca2a a9bd 315d f6bc a362 70bc 9e2f a73c
000002b0: 88e7 853d e0a7 293d b3c4 863d c26b a5bd
000002c0: d7e9 5b3d ec81 383d c194 1a3d 9f5a f3bc
000002d0: e2bb aabc 489c 4fbd b19f 283d 5ffd 69bd
000002e0: 34f6 6dbd 7f8e 10bd fa7f 873d 44db c53c
000002f0: 7c38 3dbd 148c 873c 2388 3e3c 4649 0bbd
00000300: 0a50 7abd 7f3f 3abd 7341 94bd 6627 0cbc
00000310: ff93 3c3d 5cf9 993d b4c9 5c39 651b 993d
00000320: ed30 723d 6dd9 953d 007c bc3c 983c 4ebd
00000330: f1ec 413d 76b0 7dbd 5e7b af3d 4c5a 8d3d
00000340: 1456 0b3d b91f 4c3c 93df 30bd 7e21 993d
00000350: 1e91 94bd 65b5 61bb e519 a03c 6c43 fb3a
00000360: 5872 f3bc 94fa 84bd 82a4 a73d ce60 44bc
00000370: 4e01 813d 55dd f73c 85c3 163d 0ed5 af3d
00000380: 439d 0fbd 7096 a83d ce9d 79bd 648c b33d
00000390: c5e3 9cbc 6faa 92bd bf43 593c 997d 33bd
000003a0: bede 7bbd 373b 6e3d 0b3e b83d 6e2c 923d
000003b0: f037 87bd 27e0 803d 9b8c ae3d 6585 0b3d
000003c0: 8355 a13c 4712 1b3c c202 3d3d 8de0 5a3d
000003d0: c447 1fbd 4c2c c93a fd09 7abd 59a6 6c3d
000003e0: 95c1 683d 099c a63d f5d1 3f3d f54f 8d3d
000003f0: 8822 273d cb5b a2bd 2f58 60bd 97dd 5fbd

bias f4 [12]
-0.048204504 0.04041322 -0.062291864 -0.08405977 0.023377609 -0.057602372 -0.02202044 0.03663675
-0.08494534 -0.071251154 0.031077536 -0.023633897
00000000: 1672 45bd 5588 253d c125 7fbd 8727 acbd
00000010: 6682 bf3c 77f0 6bbd 3664 b4bc 6b10 163d
00000020: d3f7 adbd 20ec 91bd 5196 fe3c e09b c1bc

weight f4 [128, 270]
0.027298478 -0.031105902 -0.012329968 0.02810228 -0.052963085 0.032640193 -0.008160981 0.031377513
0.009090883 -0.011412846 0.020952279 0.0071567423 0.025927331 -0.01956958 -0.00092828984 -0.009521133
0.012612742 0.0035838892 0.057564884 0.023317726 -0.018667327 -0.033922132 -0.0058623813 -0.030379733
-0.023479912 0.005007788 0.03219845 0.033540778 -0.05748143 0.03688425 0.014558662 0.061236534
0.03579668 -0.05204996 -0.06112806 -0.027598 0.056169722 -0.008906507 0.02323678 -0.024011731
0.057061646 -0.024270732 0.04377792 -0.0012859283 -0.034590624 0.027213717 -0.03652813 0.017455667
-0.02199324 -0.0023052222 -0.0622231 -0.024666313 0.034271553 -0.014059079 0.056485508 0.053231176
0.001456807 -0.03666177 0.040851086 0.02277173 -0.04354686 0.04337309 0.040992144 0.05827971
-0.029743204 -0.005931065 0.0033091207 0.011769153 -0.050043553 -0.045992833 0.03369015 -0.018651212
0.029508533 0.005882032 0.01575196 0.0128751965 0.020692997 0.026301324 -0.05261499 0.027445158
-0.039305072 -0.041812614 0.00012385115 -0.010539406 0.034736205 -0.03428736 -0.05711074 0.04665744
-0.011964967 0.03730894 0.015559353 -0.04981568 0.01115914 0.010438854 -0.03634199 -0.032435026
0.025136875 0.013078625 -0.024909986 -0.022721611 0.055431403 -0.006949384 0.03848331 0.03005243
-0.035241477 -0.056097616 0.062249307 0.0072892886 0.04596345 0.016927432 0.023744082 0.04744818
0.061483715 -0.044298846 0.008457348 0.049477924 0.039910406 0.03730922 -0.041208815 -0.04817159
-0.032712564 0.0072137574 0.060770016 -0.036195498 0.028664479 -0.03454961 -0.054587264 -0.013634317
0.032484144 0.060014248 -0.03591593 0.013931066 0.055998117 0.03749219 0.03999715 0.03919796
0.034303103 0.014472241 -0.04456502 -0.0467765 -0.02822978 -0.0027056055 -0.03412828 0.02358736
0.014466847 -0.01541022 0.027627457 0.023971979 0.04046787 0.045153733 -0.024988 0.063178726
-0.0028925564 0.0021140066 -0.05319708 -0.034959562 -0.033493835 -0.021874394 0.040889874 -0.023163185
-0.042110033 0.018942317 0.018752718 0.036714174 -0.031120012 0.017091542 -0.018917017 -0.015255436
-0.04621581 -0.031501554 -0.015840469 0.02811046 0.013455279 0.015655354 0.06431443 0.060706016
0.04325001 0.0015177437 -0.04568644 0.04700622 -0.019265 -0.0091364 -0.05364157 -0.014990173
-0.034975488 0.05539987 -0.048238274 -0.043772552 -0.00040142605 -0.037144464 0.01911586 -0.019174285
-0.024195919 0.0065589948 0.048269924 -0.04717101 0.032526314 0.04330356 0.0637923 -0.038383994
0.018974952 -0.043536257 0.055946976 -0.026557418 0.03345985 0.0015797423 -0.008256126 -0.0049297353
0.00770774 0.024665961 0.013636229 0.02237908 -0.05499623 0.045624435 0.051805325 0.051838946
0.04254655 -0.04062835 -0.020392258 0.052588385 -0.048388906 0.051966507 -0.04412749 -0.041274656
0.032534596 -0.04771306 -0.018123224 0.042530347 0.04434798 0.061783113 -0.016107224 -0.042925175
0.064105704 -0.010935668 -0.029119369 0.010355354 -0.038274296 0.04442216 0.03992807 -0.04401696
-0.054330904 -0.0013698738 0.029817224 0.0025405982 -0.026686406 0.005647468 -0.05500211 -0.03986523
-0.03617199 0.05304013 0.05254942 -0.024727723 -0.0014498411 0.024531206 0.007077602 -0.026578655
00000000: 0fa1 df3c ced1 febc a203 4abc c136 e63c
00000010: d2ef 58bd b9b1 053d a3b5 05bc b585 003d
00000020: edf1 143c f2fc 3abc 1da4 ab3c 1b83 ea3b
00000030: 8e65 d43c 6250 a0bc 7a58 73ba 87fe 1bbc
00000040: ada5 4e3c afdf 6a3b 28c9 6b3d d104 bf3c
00000050: 39ec 98bc eff1 0abd 3819 c0bb ebde f8bc
00000060: f258 c0bc 5f18 a43b 86e2 033d 0e62 093d
00000070: a671 6bbd f013 173d 7487 6e3c 29d3 7a3d
00000080: 8a9f 123d 5732 55bd 6b61 7abd 3315 e2bc
00000090: 3912 663d 99ec 11bc 0f5b be3c 40b4 c4bc
000000a0: 79b9 693d 6ad3 c6bc 7a50 333d 988c a8ba
000000b0: e6ae 0dbd 4def de3c 859e 15bd 30ff 8e3c
000000c0: 2b2b b4bc 3613 17bb a6dd 7ebd 0211 cabc
000000d0: 5460 0c3d 0d58 66bc 595d 673d ef08 5a3d
000000e0: 55f2 be3a a72a 16bd 7853 273d c78b ba3c
000000f0: 315e 32bd fba7 313d 61e7 273d b5b6 6e3d
00000100: 05a8 f3bc 6159 c2bb d5dd 583b 68d3 403c
00000110: 78fa 4cbd fb62 3cbd affe 093d 6dca 98bc
00000120: e1bb f13c 10be c03b 410a 813c 7df2 523c
00000130: 5c84 a93c e075 d73c d182 57bd abd4 e03c
00000140: 5bfe 20bd b443 2bbd 0ade 0139 79ad 2cbc
00000150: 8d47 0e3d e770 0cbd f4ec 69bd df1b 3f3d
00000160: b508 44bc 42d1 183d a8ec 7e3c 870b 4cbd
00000170: d3d4 363c ba07 2b3c 57db 14bd 97da 04bd
00000180: d9eb cd3c bb47 563c 0710 ccbc ac22 babc
00000190: 0a0c 633d a9b7 e3bb ada0 1d3d 8430 f63c
000001a0: 5e59 10bd 9dc6 65bd 21f9 7e3d fcda ee3b
000001b0: 2c44 3c3d 66ab 8a3c f382 c23c 0659 423d
000001c0: 59d6 7b3d b572 35bd b090 0a3c 5da9 4a3d
000001d0: 1879 233d 8dd1 183d 93ca 28bd 934f 45bd
000001e0: 9cfd 05bd 6261 ec3b fbe9 783d bb41 14bd
000001f0: c5d1 ea3c e483 0dbd e596 5fbd 7862 5fbc
00000200: 180e 053d 80d1 753d 951c 13bd 203f 643c
00000210: 485e 653d 6991 193d 0dd4 233d 0a8e 203d
00000220: 6981 0c3d fa1c 6d3c cf89 36bd b798 3fbd
00000230: 2442 e7bc 8750 31bb 18ca 0bbd 473a c13c
00000240: 5b06 6d3c 267b 7cbc fa52 e23c e260 c43c
00000250: a3c1 253d 1ff3 383d a2b3 ccbc d963 813d
00000260: 0b91 3dbb 258b 0a3b 2ee5 59bd c231 0fbd
00000270: d530 09bd ee31 b3bc 247c 273d b8c0 bdbc
00000280: 927b 2cbd eb2c 9b3c 4d9f 993c 9a61 163d
00000290: 65ef febc 9003 8c3c dcf7 9abc f0f1 79bc
000002a0: ca4c 3dbd c607 01bd dfc3 81bc e847 e63c
000002b0: 8873 5c3c a83f 803c 49b7 833d dfa6 783d
000002c0: ec26 313d 07ef c63a b421 3bbd 9889 403d
000002d0: a2d1 9dbc d7b0 15bc 43b7 5bbd 5899 75bc
000002e0: 7542 0fbd f9ea 623d 7f95 45bd d94a 33bd
000002f0: 7e76 d2b9 cb24 18bd dd98 9c3c 6413 9dbc
00000300: 8536 c6bc d6ec d63b afb6 453d 6436 41bd
00000310: 503a 053d 135f 313d 8aa5 823d 8938 1dbd
00000320: 5c71 9b3c 1353 32bd a828 653d f18e d9bc
00000330: 320d 093d 5b0f cf3a b444 07bc 9e89 a1bb
00000340: 3691 fc3b 4510 ca3c 7d6a 5f3c 5554 b73c
00000350: ba43 61bd b0e0 3a3d d231 543d 1355 543d
00000360: 4b45 2e3d ea69 26bd aa0d a7bc eb66 573d
00000370: 7233 46bd d5da 543d 07bf 34bd 9d0f 29bd
00000380: ff42 053d c56e 43bd 2877 94bc 4d34 2e3d
00000390: 3aa6 353d 4a10 7d3d 4cf3 83bc 4fd2 2fbd
000003a0: da49 833d 842b 33bc be8b eebc 81a9 293c
000003b0: 82c5 1cbd 03f4 353d 9e8b 233d 214b 34bd
000003c0: 158a 5ebd 568d b3ba 4043 f43c 2a80 263b
000003d0: 739d dabc 650e b93b e449 61bd b949 23bd
000003e0: 1529 14bd 9b40 593d 103e 573d cb91 cabc
000003f0: 9808 beba abf5 c83c 3beb e73b 7bbb d9bc
