legged_gym/logs/rough_go2/exported/policies/policy.pt (torch, 992110 bytes, 14 tensors)

weight f4 [512, 64]
-0.050871227 -0.024635542 0.43815324 0.099181905 -0.16298692 -0.27198064 0.44234246 -0.058199577
0.08654446 -0.5968777 -0.15639451 0.065916255 -0.6115569 0.22450845 -0.12449181 -0.22934175
-0.36038268 -0.040781837 -0.28716567 0.27310205 -0.08163964 -0.26552293 -0.14319886 0.1650612
0.027258746 0.29014367 -0.04366646 -0.14607953 -0.09655926 0.10583699 -0.09553923 0.08320999
0.04529317 -0.0149168065 0.111121275 0.012678775 -0.080234654 -0.16759126 -0.033110805 0.18943927
-0.21961986 -0.05109756 -0.023668636 0.042792667 -0.06205863 0.04787278 0.05288985 0.24279393
-0.043916173 -0.0005186725 0.05560416 -0.06863639 -0.024267392 0.0048030815 -0.08046029 -0.024903784
0.050306365 0.0870058 -0.005728453 0.124039665 -0.05621783 0.04808006 -0.17600217 0.09418572
-0.0037164986 -0.1570294 0.94272166 0.2075893 -0.113591775 -0.38925666 -0.13274093 -0.42792928
0.10264164 -0.17175442 -0.09491115 0.105303526 0.04719109 -0.14297199 -0.021392783 0.019801024
3.432305e-05 0.04120533 0.41210452 -0.31477657 0.00894191 -0.17255333 -0.107397676 0.19138153
-0.22723904 0.03614427 0.32782653 0.2925552 0.07665671 0.18858473 0.3785908 -0.21608013
-0.059955366 0.08078022 0.07060171 0.0024866634 0.06979912 -0.07001786 -0.011660986 -0.011682484
0.03750195 -0.01033354 0.028732855 -0.03217762 -0.01981861 0.056671843 -0.018241467 0.115009345
0.086893566 -0.03276568 -0.044708867 -0.015618617 0.093751065 -0.048839267 -0.060031746 0.06414056
0.11390797 -0.08690584 0.17366067 0.04692882 0.10362767 0.13408512 -0.0052527506 0.09886657
0.04153545 0.019134572 0.6131049 0.20063265 -0.24843933 -0.3930577 -0.30444968 0.14273182
-0.036937702 0.22246583 0.118353285 0.03057815 0.432378 -0.18268901 -0.025832362 0.32483992
-0.12094357 -0.30091843 0.21764274 -0.25817326 -0.1603103 0.23304878 0.10196361 -0.046421144
0.16874199 -0.19065592 -0.1397219 0.08413593 -0.15468019 -0.21687774 0.23592965 -0.19072723
0.014223061 -0.0012078402 -0.050182987 -0.0050864164 -0.051250614 0.088168755 -0.0404813 -0.063249275
-0.04152914 0.028406331 0.02380235 -0.002761035 -0.00725504 -0.12570125 0.012064804 0.19885662
0.00092217495 -0.12781508 -0.023692926 0.03579311 -0.0826967 -0.043676864 -0.062039692 0.0023510042
0.0063592573 0.07487715 0.07545563 -0.0636963 0.045624714 -0.05214506 -0.024495317 -0.11593979
-0.09335355 -0.34941283 0.25157258 -0.06969369 0.32591975 -0.13439809 0.58071476 0.06276303
0.1297874 0.17149854 -0.3381485 0.085223176 -0.42501792 0.5633158 0.063635446 0.13193482
0.2664827 0.19664036 -0.08040031 0.09130735 0.14467193 0.13512336 -0.3358327 -0.018584492
-0.31623882 0.20623714 0.053474057 -0.46519157 0.15872924 -0.040631108 -0.25057334 0.08211349
-0.0016757476 0.06351277 -0.008145287 -0.012332378 0.11244913 0.00829182 0.018466797 -0.07882641
0.0055625336 0.0059759743 -0.07697036 -0.09001904 -0.041302934 0.0495151 -0.1972189 0.17618449
0.00846497 0.051364366 0.09207036 -0.003419331 -0.07676856 0.0263165 -0.049986806 0.021274906
0.00277336 0.031562477 -0.048905436 0.081898905 -0.03928264 0.042338442 0.108702116 0.053080816
00000000: 595e 50bd 7ad0 c9bc 9f55 e03e e21f cb3d
00000010: 0be6 26be 0c41 8bbe b67a e23e ae62 6ebd
00000020: 393e b13d facc 18bf e225 20be 1aff 863d
00000030: fe8e 1cbf 8be5 653e 90f5 febd 90d8 6abe
00000040: 1484 b8be db0a 27bd 6107 93be 08d4 8b3e
00000050: af32 a7bd 9ff2 87be b9a2 12be ce05 293e
00000060: bc4d df3c b68d 943e 9adb 32bd df95 15be
00000070: dcc0 c5bd 10c1 d83d 12aa c3bd 006a aa3d
00000080: 5585 393d 9f65 74bc 8d93 e33d a3ba 4f3c
00000090: 1152 a4bd 0b9d 2bbe 329f 07bd 5efc 413e
000000a0: 07e4 60be ad4b 51bd bae4 c1bc 5d47 2f3d
000000b0: 3131 7ebd 4016 443d 07a3 583d f99e 783e
000000c0: 72e1 33bd 86f7 07ba 30c1 633d 3c91 8cbd
000000d0: 69cc c6bc 2b63 9d3b 5dc8 a4bd 0503 ccbc
000000e0: 0c0e 4e3d 1930 b23d bfb5 bbbb 8208 fe3d
000000f0: ab44 66bd 99ef 443d ea39 34be 71e4 c03d
00000100: 8090 73bb 51cc 20be 3556 713f 4a92 543e
00000110: cea2 e8bd a64c c7be 3ded 07be 8c19 dbbe
00000120: c835 d23d 64e0 2fbe c760 c2bd 60a9 d73d
00000130: 724b 413d 4067 12be eb3f afbc c235 a23c
00000140: 18f6 0f38 ecc6 283d 5dff d23e 652a a1be
00000150: 1781 123c d2b1 30be 50f3 dbbd 85f9 433e
00000160: 5ab1 68be 040c 143d e1d8 a73e ccc9 953e
00000170: 31fe 9c3d 5b1c 413e a7d6 c13e 1c44 5dbe
00000180: c293 75bd 1a70 a53d a197 903d 4af7 223b
00000190: d7f2 8e3d 8665 8fbd b80d 3fbc e467 3fbc
000001a0: a59b 193d 024e 29bc 2a61 eb3c aecc 03bd
000001b0: a35a a2bc bc20 683d 216f 95bc 058a eb3d
000001c0: 41f5 b13d 4e35 06bd a520 37bd 3ae5 7fbc
000001d0: 8f00 c03d af0b 48bd d9e3 75bd 205c 833d
000001e0: 9548 e93d b0fb b1bd 1ad4 313e 6f38 403d
000001f0: be3a d43d 9c4d 093e 441f acbb 8e7a ca3d
00000200: 1321 2a3d 1bc0 9c3c 71f4 1c3f a572 4d3e
00000210: e166 7ebe dc3e c9be d4e0 9bbe 4a28 123e
00000220: fd4b 17bd 15ce 633e 3563 f23d 077f fa3c
00000230: a660 dd3e d412 3bbe 649e d3bc 6b51 a63e
00000240: 43b1 f7bd fb11 9abe bddd 5e3e 492f 84be
00000250: 6228 24be 57a4 6e3e 4cd2 d03d 1924 3ebd
00000260: b3ca 2c3e 4e3b 43be 4213 0fbe 754f ac3d
00000270: 7c64 1ebe 3315 5ebe 8b97 713e 004e 43be
00000280: d707 693c 6450 9eba ad8c 4dbd f4ab a6bb
00000290: 2aec 51bd d291 b43d b8cf 25bd d688 81bd
000002a0: 761a 2abd 65b4 e83c 25fd c23c 7bf2 34bb
000002b0: b0bb edbb d4b7 00be 75ab 453c 12a1 4b3e
000002c0: 1dbe 713a f5e1 02be ab17 c2bc cc9b 123d
000002d0: e35c a9bd 83e6 32bd 551d 7ebd 4e13 1a3b
000002e0: 5161 d03b 3159 993d 7b88 9a3d 3573 82bd
000002f0: fbe0 3a3d 0f96 55bd 67aa c8bc d771 edbd
00000300: 2530 bfbd 3de6 b2be 1fce 803e 91bb 8ebd
00000310: f4de a63e a79f 09be b9a9 143f e789 803d
00000320: fde6 043e 509d 2f3e cd21 adbe 7d89 ae3d
00000330: f39b d9be 7735 103f 4d53 823d ec19 073e
00000340: 6c70 883e 175c 493e eba8 a4bd 59ff ba3d
00000350: e124 143e c75d 0a3e 43f2 abbe 813e 98bc
00000360: 0eea a1be d42f 533e 9d07 5b3d 972d eebe
00000370: eb89 223e ce6c 26bd 264b 80be 1e2b a83d
00000380: c2a4 dbba fc12 823d cf73 05bc be0d 4abc
00000390: bb4b e63d 6ada 073c ae47 973c be6f a1bd
000003a0: ea45 b63b 1bd2 c33b a3a2 9dbd e75b b8bd
000003b0: 442d 29bd 58d0 4a3d c0f3 49be b569 343e
000003c0: a8b0 0a3c 7163 523d 638f bc3d db16 60bb
000003d0: d638 9dbd b395 d73c f7be 4cbd b648 ae3c
000003e0: 43c1 353b a847 013d 1151 48bd 9dba a73d
000003f0: d5e6 20bd 136b 2d3d 379f de3d 456b 593d

bias f4 [512]
-0.16707647 -0.10893216 -0.19750877 0.06954086 0.032397766 -0.15166847 0.07975719 -0.03396712
-0.046743054 -0.032749787 0.052642684 0.19984677 -0.26127157 -0.17283905 -0.2199411 -0.010910323
-0.027354985 -0.21589325 -0.019711988 -0.17176403 -0.30024222 -0.076024674 0.10535433 0.05327698
-0.0137331225 -0.11052901 0.13140705 -0.027002137 -0.036376745 -0.035713434 0.06765432 0.08454888
0.015814934 -0.1505202 0.15297882 0.122532964 0.12478015 1.9400413e-05 0.14822191 -0.027455216
-0.20981519 0.13906594 -0.10890458 -0.11488745 0.015528141 0.07041055 -0.25861484 -0.22476955
-0.1829266 -0.17057411 0.031141307 -0.17102242 0.009009773 0.048496053 0.1337902 -0.20894964
-0.19753957 0.1334574 0.019987851 -0.19672325 0.034509134 -0.062202074 0.0075607323 -0.2412947
0.022751184 0.048174426 -0.016599871 0.14748 0.033742424 0.21714866 0.14813359 0.079141
0.08862539 -0.24395227 0.08856376 0.012008344 0.07180359 -0.056447707 -0.07579577 0.027105061
-0.04904046 -0.22215559 -0.024094403 0.1093157 -0.09681666 0.0056765317 0.09946745 -0.01509542
-0.07803649 -0.03198104 -0.08608726 -0.11347055 0.15981945 -0.290866 -0.19339073 -0.018698504
-0.08075712 0.120822266 -0.07212664 0.27385697 -0.05419183 -0.06677739 0.11543236 -0.10526354
0.093689926 -0.18843783 -0.07198598 0.08807736 0.22146893 0.054867044 0.08230197 0.035175472
-0.078700125 0.10476245 -0.31446275 -0.20699199 -0.23838992 -0.1175662 -0.030666616 0.1354882
-0.01654914 0.121412486 0.18492407 -0.007978373 0.0015427114 0.09786427 -0.14558192 0.11044514
-0.3287022 0.008975002 0.057405934 -0.032393456 -0.14552295 0.046597656 0.23088299 0.23972137
-0.049382966 -0.09632247 -0.1829046 0.12790592 0.15121509 0.08499541 -0.08051434 0.12331367
-0.18427122 0.023172684 -0.0936871 -0.24256338 0.13271122 0.04359758 0.105645396 -0.036371205
0.055717465 0.16585276 0.033987973 0.13967487 -0.22478256 -0.2196161 -0.0810952 0.2795258
0.083268054 0.09186691 -0.15189005 0.009944377 -0.058835458 -0.07039248 0.13222079 0.034817692
-0.001093416 -0.02567578 -0.05808106 0.124251224 -0.020505918 -0.10873046 -0.0958603 0.11391509
-0.20542225 -0.09672052 0.052877035 0.21419218 -0.06859946 -0.020884477 0.077426985 0.09296314
-0.15125027 0.0074421302 -0.045923147 -0.26888707 0.081865296 0.051502325 -0.124773875 -0.25259727
-0.0111692585 0.11979917 0.1517767 0.07304956 -0.19876055 0.06347901 -0.1729136 0.006597978
0.14393146 -0.2789606 -0.119211525 -0.36278018 0.022719244 -0.14252421 -0.20546818 0.024841947
0.008420562 0.028285608 -0.22000739 -0.08844993 -0.1338177 -0.04098197 0.10965328 0.03240305
-0.008634126 0.10343489 -0.13169055 0.12455825 -0.0096373195 0.24446373 -0.011350192 -0.14262757
-0.053875595 -0.19193874 0.0063713733 -0.07504469 -0.22770594 0.080485456 0.09395654 0.169381
-0.060581613 -0.02870263 -0.16491483 -0.037342615 -0.007197527 -0.053851523 -0.0019175346 -0.13208896
0.038676467 -0.29806897 0.13984169 -0.20498382 -0.066906005 0.080458626 -0.010124077 -0.29237652
0.09285435 -0.21608429 0.27102792 -0.09218067 -0.08603471 -0.24915417 0.11238287 -0.05700323
00000000: 1816 2bbe d317 dfbd bd3f 4abe 706b 8e3d
00000010: 85b3 043d fb4e 1bbe bd57 a33d 1b21 0bbd
00000020: a575 3fbd a424 06bd db9f 573d a2a4 4c3e
00000030: 63c5 85be b8fc 30be 3d38 61be 36c1 32bc
00000040: 9017 e0bc 1f13 5dbe 097b a1bc e9e2 2fbe
00000050: 59b9 99be d3b2 9bbd 03c4 d73d f638 5a3d
00000060: e400 61bc 095d e2bd 928f 063e 9633 ddbc
00000070: c8ff 14bd 4048 12bd 598e 8a3d f727 ad3d
00000080: 528e 813c f821 1abe 7ba6 1c3e 90f2 fa3d
00000090: bc8c ff3d 12be a237 7cc7 173e c3e9 e0bc
000000a0: cbd9 56be 4d67 0e3e 5d09 dfbd 1d4a ebbd
000000b0: be69 7e3c 6833 903d 2a69 84be fd29 66be
000000c0: 1c51 3bbe fbaa 2ebe 0e1c ff3c 8020 2fbe
000000d0: ba9d 133c cca3 463d 4c00 093e e5f6 55be
000000e0: d047 4abe 0fa9 083e 90bd a33c d271 49be
000000f0: 7359 0d3d 9ac7 7ebd 05c0 f73b f515 77be
00000100: b160 ba3c 8c52 453d 74fc 87bc ff04 173e
00000110: 7f35 0a3d 385c 5e3e 55b0 173e ad14 a23d
00000120: 3a81 b53d a0ce 79be eb60 b53d a5be 443c
00000130: c30d 933d b635 67bd d03a 9bbd 6f0b de3c
00000140: a6de 48bd c17c 63be a061 c5bc e9e0 df3d
00000150: d047 c6bd 3302 ba3b 97b5 cb3d c852 77bc
00000160: 98d1 9fbd 8dfe 02bd 844e b0bd 3f63 e8bd
00000170: b6a7 233e 63ec 94be 3808 46be 9b2d 99bc
00000180: fd63 a5bd aa71 f73d 22b7 93bd fb36 8c3e
00000190: 41f8 5dbd 96c2 88bd cd67 ec3d 6994 d7bd
000001a0: 81e0 bf3d d9f5 40be 636d 93bd e761 b43d
000001b0: c0c8 623e 44bc 603d ef8d a83d 2814 103d
000001c0: 882d a1bd b28d d63d 4301 a1be b5f5 53be
000001d0: 7d1c 74be 8cc6 f0bd 8e38 fbbc 6bbd 0a3e
000001e0: 1092 87bc 1ca7 f83d bc5c 3d3e b9b7 02bc
000001f0: ce34 ca3a 106d c83d 6d13 15be 1031 e23d
00000200: a84b a8be e30b 133c 7c22 6b3d 00af 04bd
00000210: f803 15be 2fdd 3e3d 976c 6c3e 8579 753e
00000220: cb45 4abd b744 c5bd 584b 3bbe c5f9 023e
00000230: 21d8 1a3e 1312 ae3d b4e4 a4bd e18b fc3d
00000240: 98b1 3cbe a4d4 bd3c 06df bfbd 8962 78be
00000250: 73e5 073e 6093 323d 9d5c d83d f9f9 14bd
00000260: ff37 643d 4ed5 293e f936 0b3d ee06 0f3e
00000270: 662d 66be 0be3 60be 3d15 a6bd 011e 8f3e
00000280: 7188 aa3d b824 bc3d 1189 1bbe bded 223c
00000290: 73fd 70bd ef29 90bd e364 073e ff9c 0e3d
000002a0: f450 8fba 0356 d2bc 68e6 6dbd 6d77 fe3d
000002b0: 07fc a7bc 13ae debd 6852 c4bd 514c e93d
000002c0: 365a 52be 6815 c6bd 9795 583d 3255 5b3e
000002d0: e07d 8cbd ec15 abbc 0a92 9e3d 7563 be3d
000002e0: 5ae1 1abe 1ddd f33b e919 3cbd 91ab 89be
000002f0: fea8 a73d 1af4 523d 7289 ffbd 6e54 81be
00000300: 44ff 36bc 4459 f53d 5a6b 1b3e 029b 953d
00000310: e387 4bbe 4801 823d 4310 31be da33 d83b
00000320: c562 133e ecd3 8ebe 2c25 f4bd 53be b9be
00000330: b51d ba3c def1 11be 4066 52be 5781 cb3c
00000340: 66f6 093c 38b7 e73c 9e49 61be 3d25 b5bd
00000350: 8207 09be b6dc 27bd e691 e03d 10b9 043d
00000360: 2676 0dbc acd5 d33d e3d9 06be 6518 ff3d
00000370: d9e5 1dbc b354 7a3e 28f6 39bc f60c 12be
00000380: a8ac 5cbd 978b 44be f4c6 d03b 08b1 99bd
00000390: bf2b 69be 8fd5 a43d 496c c03d 3672 2d3e
000003a0: 6d24 78bd c721 ebbc 6fdf 28be 92f4 18bd
000003b0: 3cd9 ebbb 6a93 5cbd c955 fbba 5442 07be
000003c0: 376b 1e3d 7f9c 98be a932 0f3e 47e7 51be
000003d0: 0406 89bd 7ec7 a43d 75df 25bc 60b2 95be
000003e0: 6c2a be3d 3345 5dbe 2cc4 8a3e 38c9 bcbd
000003f0: f732 b0bd 4522 7fbe fd28 e63d 387c 69bd

weight f4 [256, 512]
0.030260146 0.14988765 0.12646446 -0.11169569 0.1677246 0.08386521 0.091830775 -0.04549393
-0.056884654 -0.031375386 0.11565521 -0.20251128 0.07625161 0.14858194 0.053280264 0.04144298
0.009395717 -0.06461882 -0.03492186 0.08142979 0.07263408 0.031647258 0.027369307 -0.04614432
-0.22957842 0.029303754 -0.09028456 -0.16977476 -0.09727998 0.063582376 -0.12781459 0.06825003
0.26982003 0.13268432 -0.14040954 -0.091869675 -0.055053007 -0.16821854 -0.05593387 0.086932346
0.0013760034 -0.039885204 -0.14236054 0.13751444 0.10315935 -0.31801084 0.12491268 0.05300086
0.06528877 0.12288727 -0.037424546 0.16230214 0.10103989 -0.06448982 0.09827019 0.06304382
0.09799308 -0.09978911 -0.061241932 -0.032954406 0.1141627 0.034883562 -0.030827712 0.19276907
-0.10078072 -0.15222533 0.08545003 0.09589777 -0.14371352 0.035017945 0.32930472 0.08131091
-0.13744946 0.027323423 0.043035325 0.05164921 0.12504345 -0.01090583 -0.18384258 0.0164694
0.05234824 0.18519147 0.00057785213 -0.038888346 -0.046023235 -0.16798702 0.029610628 0.09273415
0.13550766 0.018165808 -0.14677611 -0.015026639 -0.026365763 0.086498745 0.01750128 -0.13357039
0.06650662 -0.008529894 -0.057062667 -0.06973953 0.20187984 -0.04686448 -0.14948763 -0.04629371
-0.043651823 0.1011148 -0.093786895 0.03115551 -0.1654295 0.057950646 -0.0883389 0.09024815
0.24280427 0.029796444 -0.05175589 0.01089473 0.1943271 0.078848 0.09689996 0.06759468
-0.03569853 -0.1388033 -0.039401427 -0.15063177 0.06704103 0.004524873 0.09179938 -0.07465134
0.033663586 0.059595127 -0.04767119 -0.18161432 -0.055387132 -0.053483244 0.012893505 -0.09645818
0.083031714 -0.110787556 0.1788702 -0.05202484 0.0051625157 0.07391676 0.08943238 -0.036634874
-0.000891778 0.055332698 0.067944445 0.20803322 -0.1822071 -0.013209585 -0.030230533 0.076561034
-0.12253643 -0.33144358 0.11043044 0.118419126 0.24671543 0.035608396 0.035343684 -0.0049897507
-0.040145077 0.020255672 0.090265036 0.014808255 0.06688816 0.04774385 0.04776088 0.046214867
-0.034904268 -0.13114977 0.076604106 -0.056951888 0.0443224 0.04132985 0.05444243 -0.10250266
-0.081941396 -0.095833994 -0.09778451 -0.34089887 -0.008732744 0.2448761 -0.10327021 -0.10566887
0.1257839 0.11669895 -0.027590584 0.14196433 0.061326284 0.05656512 0.016639229 0.014080631
0.016298909 0.014036354 0.069274314 0.11721797 0.02991039 0.09450421 -0.029750172 0.008502629
-0.1493956 0.3411616 0.12280497 0.12102916 0.16373436 -0.01038409 0.08389107 0.10633419
0.17489778 -0.059543207 -0.1990492 -0.07322476 0.05118481 0.11875862 -0.051811337 0.037215248
0.025976587 0.14866687 -0.07289672 -0.04965277 -0.053539347 -0.003921956 -0.02758014 0.15139054
0.031365473 0.0047817077 0.13769655 0.02700655 -0.032562938 -0.045073997 -0.06745126 0.026758341
0.14751214 0.121852756 0.1295196 0.093558475 0.098745875 -0.044100743 -0.029650485 0.061252333
-0.04903973 0.009420438 -0.08351027 -0.21311186 0.033457052 -0.2721639 0.057900704 0.1954183
-0.14622934 0.059092946 0.02260148 0.04359416 -0.011200856 -0.052690294 -0.007893535 0.07152547
00000000: 20e4 f73c 267c 193e e67f 013e b6c0 e4bd
00000010: ffbf 2b3e 86c1 ab3d c611 bc3d d857 3abd
00000020: e2ff 68bd 7a83 00bd a4dc ec3d 1e5f 4fbe
00000030: ce29 9c3d dd25 183e 683c 5a3d 1dc0 293d
00000040: 7ef0 193c df56 84bd 390a 0fbd a9c4 a63d
00000050: 2dc1 943d 8ea0 013d 9935 e03c d401 3dbd
00000060: 9b16 6bbe 6d0e f03c 1de7 b8bd 6fd9 2dbe
00000070: ba3a c7bd 7a37 823d d4e1 02be acc6 8b3d
00000080: da25 8a3e 66de 073e 85c7 0fbe 2b26 bcbd
00000090: 437f 61bd 7b41 2cbe ea1a 65bd 9609 b23d
000000a0: 035b b43a ab5e 23bd f6c6 11be 96d0 0c3e
000000b0: 3645 d33d 51d2 a2be 38d2 ff3d 6e17 593d
000000c0: 1eb6 853d 52ac fb3d 7b4a 19bd 8832 263e
000000d0: 00ee ce3d 3d13 84bd e241 c93d 1e1d 813d
000000e0: 99b0 c83d 3c5e ccbd d2d8 7abd 33fb 06bd
000000f0: 22ce e93d 11e2 0e3d 668a fcbc 4165 453e
00000100: 1f66 cebd f5e0 1bbe 6d00 af3d 0d66 c43d
00000110: a329 13be fa6e 0f3d a19a a83e 5686 a63d
00000120: 8dbf 0cbe 5fd5 df3c cf45 303d 1f8e 533d
00000130: 640b 003e 5eae 32bc 3b41 3cbe d6ea 863c
00000140: 1c6b 563d d5a2 3d3e 007b 173a 6349 1fbd
00000150: dc82 3cbd ca04 2cbe fd91 f23c 67eb bd3d
00000160: 85c2 0a3e 76d0 943c 7a4c 16be 4b32 76bc
00000170: 03fd d7bc 4126 b13d d85e 8f3c adc6 08be
00000180: 9f34 883d f8c0 0bbc 8bba 69bd 99d3 8ebd
00000190: 97b9 4e3e f8f4 3fbd 4913 19be 799e 3dbd
000001a0: 41cc 32bd 4715 cf3d 5813 c0bd d739 ff3c
000001b0: 5a66 29be a85d 6d3d 06eb b4bd 06d4 b83d
000001c0: afa1 783e ac17 f43c fcfd 53bd cf7f 323c
000001d0: affd 463e 0f7b a13d 7c73 c63d 146f 8a3d
000001e0: 9f38 12bd 7422 0ebe 6463 21bd 373f 1abe
000001f0: cf4c 893d 6345 943b 5001 bc3d cde2 98bd
00000200: d4e2 093d 051a 743d de42 43bd 1bf9 39be
00000210: 9edd 62bd 3f11 5bbd 483f 533c de8b c5bd
00000220: 880c aa3d 96e4 e2bd c029 373e 0018 55bd
00000230: 522a a93b ac61 973d 5328 b73d 730e 16bd
00000240: 35c6 69ba 8aa4 623d 7526 8b3d a906 553e
00000250: 7f94 3abe 046d 58bc 06a6 f7bc 08cc 9c3d
00000260: 61f4 fabd f9b2 a9be 5b29 e23d ba85 f23d
00000270: f8a2 7c3e 1cda 113d 8ac4 103d 1081 a3bb
00000280: 2a6f 24bd 39ef a53c e0dc b83d 539e 723c
00000290: a9fc 883d 0e8f 433d eaa0 433d cd4b 3d3d
000002a0: c7f7 0ebd 204c 06be 9de2 9c3d 6246 69bd
000002b0: 688b 353d 7d49 293d 07ff 5e3d eaec d1bd
000002c0: e4d0 a7bd 9d44 c4bd 3f43 c8bd 4c8a aebe
000002d0: c813 0fbc cdc0 7a3e 557f d3bd ec68 d8bd
000002e0: 7fcd 003e dcff ee3d a605 e2bc 195f 113e
000002f0: 4531 7b3d d4b0 673d fe4e 883c 72b2 663c
00000300: 4a85 853c bcf8 653c b1df 8d3d fa0f f03d
00000310: a206 f53c 6c8b c13d a2b6 f3bc 9c4e 0b3c
00000320: 29fb 18be bcac ae3e 2c81 fb3d 23de f73d
00000330: fba9 273e 0822 2abc 15cf ab3d bdc5 d93d
00000340: 6718 333e 94e3 73bd 8ed3 4bbe ddf6 95bd
00000350: 2aa7 513d b837 f33d 2038 54bd 046f 183d
00000360: dacc d43c 213c 183e e04a 95bd b460 4bbd
00000370: 134c 5bbd c083 80bb bfef e1bc 1f06 1b3e
00000380: 1579 003d dfaf 9c3b 5300 0d3e d73c dd3c
00000390: b760 05bd 839f 38bd e323 8abd 4f34 db3c
000003a0: 6c0d 173e f08d f93d c9a0 043e 969b bf3d
000003b0: 473b ca3d fba2 34bd 93e5 f2bc bae3 7a3d
000003c0: e2dd 48bd 2e58 1a3c 6f07 abbd ff39 5abe
000003d0: 430a 093d 1159 8bbe 4a29 6d3d bc1b 483e
000003e0: 25bd 15be 720b 723d bd26 b93c ca8f 323d
000003f0: cc83 37bc c7d1 57bd e353 01bc f27b 923d

bias f4 [256]
-0.1083362 -0.028622419 -0.21211267 -0.11045586 0.0012718439 0.060527235 -0.011393755 0.0025968417
-0.15212595 -0.11859097 -0.06400641 -0.12469127 -0.14979623 -0.0849017 -0.038063936 -0.025032625
-0.1220057 -0.13422503 -0.045882892 -0.014626824 -0.12175409 -0.04289566 -0.15348615 -0.14085509
0.0019918855 -0.18203433 -0.060038492 -0.12099607 -0.1386373 -0.1483763 -0.056791216 -0.11235467
-0.015433044 -0.09567548 -0.05346096 -0.020011816 -0.16366997 -0.04710765 -0.044004768 -0.094716184
-0.12511416 -0.11370613 -0.06367249 -0.2404301 -0.16235682 -0.09021205 -0.19939971 -0.0060874876
-0.064277165 -0.010252395 -0.036110397 -0.06844916 -0.07387134 0.008833408 -0.1969254 -0.12045597
-0.019010138 -0.24677394 -0.15499234 -0.11606212 -0.11508917 -0.061146908 -0.19513415 -0.07848928
-0.07570455 -0.1270046 -0.071187146 -0.059786655 -0.12571472 -0.121306986 -0.087317206 0.03176634
-0.08028058 -0.08054284 -0.078312226 -0.09504243 -0.12640427 -0.19959442 -0.18492407 -0.052854035
-0.0015923502 -0.0379933 -0.055225465 -0.14396001 -0.16863123 -0.07497201 -0.10768244 0.00241072
0.016523046 -0.08530101 -0.07161277 -0.14122547 -0.06659517 -0.094885744 -0.073751874 -0.17436062
-0.13925211 -0.06669558 -0.13189247 -0.00464323 -0.048195265 -0.16112621 -0.09257107 -0.14429137
-0.11210874 -0.23088132 -0.08841281 -0.37559932 -0.051307395 -0.0049344655 -0.08513138 -0.07948851
-0.06824537 -0.09784911 -0.041174185 -0.09861415 -0.026591485 -0.14125142 -0.16412565 -0.20004815
-0.11955493 -0.028073154 -0.105071574 -0.13302365 -0.1808583 -0.045592025 -0.077484086 -0.07916194
-0.014268202 -0.038094483 -0.09320209 -0.24626575 -0.11183158 -0.014843594 -0.1457741 -0.09896895
-0.09614547 -0.24523349 -0.08889436 -0.13834721 0.020800326 -0.113766454 -0.085789606 -0.18218042
-0.034182902 -0.09949002 -0.09198043 -0.020459514 -0.0062742108 -0.06497718 -0.41382873 -0.038788315
-0.23606761 -0.009319626 -0.03729087 -0.06800421 -0.116548866 -0.06757253 -0.09747624 -0.12334504
-0.12812816 -0.027662737 -0.074673 -0.13284303 -0.070327 -0.17488623 -0.092897795 -0.033373784
-0.05843589 -0.16472958 -0.11876519 -0.09786381 -0.11356831 -0.13608986 -0.24857362 -0.12845366
-0.08792586 -0.0251602 -0.12730862 -0.106813625 -0.1678637 -0.056201674 -0.4309942 -0.05761848
-0.1883896 0.017582547 -0.09761423 -0.12923306 -0.046250526 -0.08974793 -0.046143927 -0.05716416
-0.117907986 -0.029524216 -0.035382263 -0.06583313 -0.06907383 -0.11090162 -0.12091662 -0.10302305
-0.079527095 -0.05141602 -0.030720042 -0.09893959 -0.10285124 -0.03529942 -0.03185082 -0.088538386
-0.108440205 -0.068498485 -0.052734885 -0.083715826 -0.10023622 -0.05138569 -0.07271264 -0.086764395
-0.0039167753 -0.089994684 -0.004307294 -0.06665132 -0.090063065 -0.008606347 -0.075249046 -0.17949788
-0.02384438 0.016638542 -0.14198273 -0.14798716 -0.062094323 -0.114197955 -0.12979276 -0.08586634
-0.24243397 -0.114803 -0.060190227 0.008644499 -0.29841757 -0.04290849 -0.14369676 -0.0780727
-0.13437241 -0.031317927 -0.1415418 -0.22256422 -0.06538429 -0.06668354 -0.07902865 -0.06285869
-0.07119875 -0.12933193 -0.124868035 -0.069110215 -0.0929677 -0.07306227 -0.02497628 -0.10947767
00000000: 5fdf ddbd 9079 eabc 1034 59be af36 e2bd
00000010: 00b4 a63a 68eb 773d dfac 3abc c62f 2a3b
00000020: e8c6 1bbe d3df f2bd cb15 83bd 235e ffbd
00000030: 2f64 19be f1e0 adbd eee8 1bbd 3811 cdbc
00000040: 20de f9bd 4972 09be b3ef 3bbd 59a5 6fbc
00000050: 355a f9bd 5cb3 2fbd 792b 1dbe 513c 10be
00000060: 4b8a 023b 3567 3abe ecea 75bd cacc f7bd
00000070: f0f6 0dbe f5ef 17be e89d 68bd 351a e6bd
00000080: e1da 7cbc 82f1 c3bd e1f9 5abd d2ef a3bc
00000090: 1a99 27be f4f3 40bd 583e 34bd 8ffa c1bd
000000a0: ed1d 00be c2de e8bd b966 82bd 4f33 76be
000000b0: de40 26be 18c1 b8bd 702f 4cbe 8c79 c7bb
000000c0: bfa3 83bd a9f9 27bc 7fe8 13bd 132f 8cbd
000000d0: db49 97bd 00ba 103c d0a6 49be 9fb1 f6bd
000000e0: 26bb 9bbc 4fb2 7cbe 50b6 1ebe fab1 edbd
000000f0: dfb3 ebbd 2e75 7abd 3fd1 47be fdbe a0bd
00000100: fd0a 9bbd 7e0d 02be 91ca 91bd dae2 74bd
00000110: 5cbb 00be cc6f f8bd 5dd3 b2bd 6c1d 023d
00000120: 256a a4bd a5f3 a4bd 2962 a0bd 9ba5 c2bd
00000130: 1f70 01be 7b62 4cbe bc5c 3dbe 797d 58bd
00000140: 68b6 d0ba dd9e 1bbd 1934 62bd 416a 13be
00000150: aaad 2cbe ed8a 99bd 9c88 dcbd 2cfd 1d3b
00000160: 575b 873c 4cb2 aebd b7a9 92bd 699d 10be
00000170: 0c63 88bd 7553 c2bd 390b 97bd 978b 32be
00000180: 1b98 0ebe b197 88bd d20e 07be 3c26 98bb
00000190: 6668 45bd 45fe 24be e795 bdbd 1ec1 13be
000001a0: 4499 e5bd 276c 6cbe c611 b5bd 8e4e c0be
000001b0: b427 52bd 4cb1 a1bb 5c59 aebd dfca a2bd
000001c0: 3bc4 8bbd 1d65 c8bd 43a6 28bd 37f6 c9bd
000001d0: 63d6 d9bc 36a4 10be 8e10 28be 6cd9 4cbe
000001e0: 37d9 f4bd acf9 e5bc c42f d7bd 5a37 08be
000001f0: eb32 39be b4be 3abd faaf 9ebd a81f a2bd
00000200: 2dc5 69bc f608 1cbd bde0 bebd 172d 7cbe
00000210: f507 e5bd 8c32 73bc ce45 15be 3cb0 cabd
00000220: ebe7 c4bd 7d1e 7bbe 3f0e b6bd e4aa 0dbe
00000230: 7265 aa3c 63fe e8bd 76b2 afbd 818d 3abe
00000240: 5f03 0cbd 6cc1 cbbd 3c60 bcbd b69a a7bc
00000250: e597 cdbb c112 85bd 5ce1 d3be 7fe0 1ebd
00000260: b5bb 71be 58b1 18bc 50be 18bd cb45 8bbd
00000270: 2cb1 eebd 7763 8abd 9fa1 c7bd 539c fcbd
00000280: 0734 03be f79c e2bc 28ee 98bd 0108 08be
00000290: 9a07 90bd 6015 33be 3341 bebd f3b2 08bd
000002a0: 795a 6fbd dfae 28be 2a3b f3bd d26c c8bd
000002b0: 8196 e8bd 245b 0bbe 158a 7ebe 5b89 03be
000002c0: 7912 b4bd c41c cebc 315d 02be 1ac1 dabd
000002d0: 76e4 2bbe ba33 66bd 46ab dcbe 5b01 6cbd
000002e0: 34e9 40be 4609 903c f8e9 c7bd ac55 04be
000002f0: 3171 3dbd c3cd b7bd 6a01 3dbd f724 6abd
00000300: be79 f1bd c5dc f1bc feec 10bd 85d3 86bd
00000310: 9576 8dbd 6320 e3bd 22a3 f7bd c0fd d2bd
00000320: 1adf a2bd 9b99 52bd 99a8 fbbc d7a0 cabd
00000330: aca3 d2bd 2096 10bd 0176 02bd 9d53 b5bd
00000340: e615 debd ef48 8cbd 8900 58bd 3473 abbd
00000350: a648 cdbd cd79 52bd 5dea 94bd 88b1 b1bd
00000360: 4b58 80bb 224f b8bd 3324 8dbb 7d80 88bd
00000370: fc72 b8bd a301 0dbc 2c1c 9abd 4bce 37be
00000380: 4a55 c3bc 8d4d 883c ec63 11be f289 17be
00000390: 9e56 7ebd 9ee0 e9bd 65e8 04be b1da afbd
000003a0: 9c40 78be d61d ebbd 078a 76bd a8a1 0d3c
000003b0: 30ca 98be d0c0 2fbd 3e25 13be 94e4 9fbd
000003c0: ec98 09be 3a47 00bd 55f0 10be e0e7 63be
000003d0: 33e8 85bd 6191 88bd c6d9 a1bd 0fbc 80bd
000003e0: a6d0 91bd 976f 04be d0ba ffbd a889 8dbd
000003f0: d965 bebd aca1 95bd 0e9b ccbc d435 e0bd

weight f4 [128, 256]
-0.0713448 0.04177777 -0.043193832 -0.020450747 0.025884522 0.15296856 0.0073661306 0.045355197
0.02897867 -0.035797782 0.01894469 0.05262154 -0.09283444 0.012782396 0.04431981 0.0058977553
0.009576334 -0.039371874 0.01813931 0.0284591 -0.11552338 -0.049006984 0.14262003 0.07899846
-0.044545908 -0.21490335 -0.021276591 0.026931169 0.08440423 -0.04717607 -0.06277404 0.0228285
0.07887127 0.028500376 0.07826106 -0.052014165 0.11468806 -0.13822943 -0.028400239 0.033471826
0.052279335 0.03260635 0.025141433 -0.06894862 -0.059913766 -0.016046269 -0.013848176 0.040459596
-0.02184623 0.041034237 0.10695567 0.15450275 -0.0050170845 0.058949824 0.06217458 0.09016001
-0.015808474 0.077797204 0.017896922 -0.035012826 -0.04808293 -0.058274984 -0.10926303 -0.01429368
-0.04228946 -0.047425024 -0.030061858 0.07301332 0.11577858 0.13249278 -0.007577704 0.06857527
-0.012084024 -0.011903259 -0.012252287 0.053064726 0.046590626 0.1869955 -0.10307257 0.006592967
-0.0027109287 0.01343623 -0.07016837 0.09693061 0.056733355 -0.08238966 -0.08718523 -0.04954707
-0.060557302 0.032657646 0.048906155 -0.12528412 0.04039323 -0.15879473 0.034553148 -0.01163776
0.17284653 0.044848632 0.06652916 0.00064408313 -0.088276945 0.07420405 -0.0897939 -0.10145779
0.039382536 -0.0860607 -0.0825708 -0.026178885 -0.028832449 -0.025972856 0.093330815 -0.08203433
0.09882199 -0.1460758 -0.08285799 0.06911003 0.03232458 -0.018173497 0.018045422 0.13044457
-0.005973747 0.054559253 -0.05748653 -0.014704238 0.08029142 0.071075074 -0.038905587 0.18415573
-0.08796446 0.04535953 0.028447995 -0.05308001 0.05673011 -0.018951118 0.08685173 0.005795139
0.04522685 -0.044590592 -0.008284022 0.06230037 0.030404927 -0.024791593 -0.022608133 -0.007110496
-0.021409718 0.101241134 -0.10515719 -0.012155614 -0.007193622 0.068707116 -0.106021784 -0.0148719
-0.15477386 0.059111204 -0.059918188 0.15630911 0.17510909 -0.03311183 0.13433832 -0.102018796
0.006209512 -0.049865324 -0.12183173 -0.051212016 -0.014971153 0.053937778 0.03402199 0.0011079867
-0.021790026 -0.020419506 0.023779158 -0.064741544 -0.09682819 0.07997566 0.17931074 0.1264956
-0.07157157 -0.025790123 0.034047276 0.04605234 0.032195352 0.16853659 0.156454 -0.019183485
-0.06920629 0.09468643 0.076104224 -0.0012279786 0.026318705 -0.04377872 0.030463519 0.043213468
-0.19716613 0.0530581 0.0065369504 0.07769897 -0.009699907 0.044423003 0.009897738 0.06575083
0.032882538 -0.061909582 -0.040907532 0.067312755 0.0132561205 0.00035632614 -0.18507454 0.04929765
-0.08801128 0.020855123 -0.026131377 -0.05648867 -0.02584598 0.03693182 0.09198135 -0.08493986
-0.019838316 0.034152694 0.18223654 0.03226592 0.038889047 0.029709337 0.029975755 -0.00012043285
0.04263309 -0.0033960012 -0.08507471 0.09436612 0.021492874 -0.11568614 -0.019987302 -0.0253954
-0.086009875 0.079088494 0.0052281143 -0.07806937 0.04956996 -0.05692602 0.03933413 -0.017078508
-0.00489661 0.09316881 -0.11561975 -0.18847665 0.044957235 0.100363486 0.005994926 0.07204719
0.081955366 0.10176355 -0.0809199 0.020275315 0.026452 -0.07006208 0.028461106 0.00990034
00000000: 391d 92bd 2b1f 2b3d 04ec 30bd 5388 a7bc
00000010: c70b d43c caa3 1c3e 955f f13b 5fc6 393d
00000020: ad64 ed3c b2a0 12bd e531 9b3c af89 573d
00000030: fc1f bebd 416d 513c b088 353d f541 c13b
00000040: 0ee6 1c3c 6744 21bd e498 943c 0f23 e93c
00000050: 8697 ecbd 8cbb 48bd fc0a 123e f2c9 a13d
00000060: c575 36bd a00f 5cbe 3f4c aebc c19e dc3c
00000070: 20dc ac3d b23b 41bd ad8f 80bd d602 bb3c
00000080: 4387 a13d 9f79 e93c 5647 a03d ce0c 55bd
00000090: 93e1 ea3d 048c 0dbe 9ea7 e8bc c119 093d
000000a0: db22 563d 3c8e 053d 68f5 cd3c ef34 8dbd
000000b0: 2368 75bd 7773 83bc 76e3 62bc f6b8 253d
000000c0: ddf6 b2bc 8413 283d 930b db3d f835 1e3e
000000d0: 5b66 a4bb 5f75 713d c6aa 7e3d d0a5 b83d
000000e0: c680 81bc 2454 9f3d 919c 923c 9c69 0fbd
000000f0: 9bf2 44bd c0b1 6ebd 4cc5 dfbd 0a30 6abc
00000100: b637 2dbd be40 42bd 4944 f6bc 0288 953d
00000110: 521d ed3d 30ac 073e 634e f8bb 3171 8c3d
00000120: 12fc 45bc e305 43bc d1bd 48bc 665a 593d
00000130: d0d5 3e3d c07b 3f3e b617 d3bd d109 d83b
00000140: d6a9 31bb a223 5c3c 6fb4 8fbd 8e83 c63d
00000150: 3c61 683d e9bb a8bd 2b8e b2bd def1 4abd
00000160: ef0a 78bd 06c4 053d d251 483d 7b4a 00be
00000170: 5f73 253d 169b 22be 9a87 0d3d 4eac 3ebc
00000180: aefe 303e 33b3 373d 7140 883d b0d7 283a
00000190: 8bca b4bd 4bf8 973d dde5 b7bd 1ac9 cfbd
000001a0: 954f 213d 9840 b0bd e11a a9bd 1a75 d6bc
000001b0: 0732 ecbc 07c5 d4bc 3a24 bf3d 9d01 a8bd
000001c0: 2f63 ca3d e594 15be 73b1 a9bd 8f89 8d3d
000001d0: c766 043d 96e0 94bc fed3 933c 4393 053e
000001e0: 6cbf c3bb 8679 5f3d ff76 6bbd 0bea 70bc
000001f0: d46f a43d cf8f 913d 775b 1fbd 5293 3c3e
00000200: b626 b4bd eaca 393d c50b e93c 6d6a 59bd
00000210: d55d 683d 603f 9bbc 52df b13d 26e5 bd3b
00000220: ca3f 393d a0a4 36bd b5b9 07bc ac2e 7f3d
00000230: c113 f93c bd17 cbbc b134 b9bc 2aff e8bb
00000240: 6f63 afbc 8357 cf3d a75c d7bd 5728 47bc
00000250: 7ab8 ebbb 51b6 8c3d f321 d9bd 45a9 73bc
00000260: 0a7d 1ebe 971e 723d c66c 75bd 7f0f 203e
00000270: cc4f 333e 45a0 07bd fc8f 093e 3bef d0bd
00000280: 2979 cb3b 953f 4cbd ea82 f9bd b1c3 51bd
00000290: 9149 75bc dced 5c3d a45a 0b3d dd39 913a
000002a0: ff80 b2bc cf46 a7bc 82cc c23c 3797 84bd
000002b0: dc4d c6bd 47ca a33d 3c9d 373e 1088 013e
000002c0: 1e94 92bd cf45 d3bc 2875 0b3d 61a1 3c3d
000002d0: 46df 033d db94 2c3e 7a35 203e af26 9dbc
000002e0: 07bc 8dbd f6ea c13d 88dc 9b3d 20f4 a0ba
000002f0: 539a d73c 5151 33bd a18e f93c 9b00 313d
00000300: ebe5 49be 7353 593d ea33 d63b a320 9f3d
00000310: 5cec 1ebc e5f4 353d 1f2a 223c 5fa8 863d
00000320: d7af 063d e794 7dbd a88e 27bd 45db 893d
00000330: 3330 593c 49d1 ba39 2e84 3dbe 55ec 493d
00000340: 423f b4bd 5dd8 aa3c 7811 d6bc aa60 67bd
00000350: f3ba d3bc d245 173d b860 bc3d f3f4 adbd
00000360: f783 a2bc b2e3 0b3d 379c 3a3e 4529 043d
00000370: 1f4a 1f3d ff60 f33c b78f f53c e590 fcb8
00000380: 09a0 2e3d 728f 5ebb a63b aebd 0643 c13d
00000390: d311 b03c dbec ecbd 69bc a3bc 040a d0bc
000003a0: f225 b0bd 26f9 a13d 9a50 ab3b d5e2 9fbd
000003b0: df09 4b3d 422b 69bd d31c 213d 3ae8 8bbc
000003c0: be73 a0bb 4acf be3d 0cca ecbd 0600 41be
000003d0: 1425 383d 5f8b cd3d 1671 c43b 7a8d 933d
000003e0: 37d8 a73d 6869 d03d 55b9 a5bd 6b18 a63c
000003f0: ddb1 d83c b57c 8fbd 4427 e93c 0935 223c

bias f4 [128]
0.0023556608 -0.21140149 -0.036282964 0.018728595 -0.075002804 -0.08044819 -0.09999342 -0.02321017
-0.12504514 -0.26985404 0.018221853 -0.045676652 -0.10129145 -0.054498814 -0.01865463 -0.15046024
-0.028071346 -0.08424849 -0.06304983 -0.060068555 0.008792914 0.009279017 -0.0912353 -0.1086324
-0.035161678 -0.07540866 -0.13997374 -0.078467004 0.012788398 -0.04442677 -0.06575434 -0.00033514632
-0.0002559768 -0.12392774 -0.25995257 0.015754957 -0.25935495 -0.1259468 -0.03351264 -0.09067432
-0.026693307 -0.07009965 -0.07599195 -0.21986209 -0.04301779 -0.030814277 -0.09581024 -0.10153376
-0.03130875 -0.039651047 -0.19374733 -0.054855917 -0.06565048 -0.06645218 -0.020297516 -0.100846596
-0.05313405 -0.06627042 -0.073431104 -0.16562456 -0.06576914 -0.09176276 -0.22634734 -0.098579854
-0.13440323 -0.03880115 0.0135998335 -0.028186327 -0.06427535 -0.04647023 -0.08041356 -0.11104023
-0.08209595 0.058016643 0.14881346 -0.18575594 -0.07447011 -0.12650912 -0.015963085 -0.051439
-0.04022835 -0.052673426 -0.09889759 -0.07166569 -0.09468986 -0.041709192 -0.07946077 -0.033361927
-0.0016172143 -0.06460624 -0.06593748 -0.022156343 -0.118999526 -0.03613762 -0.071534775 -0.007158397
-0.032957785 -0.049450964 -0.042989492 -0.25753134 -0.055232428 -0.11473764 -0.05963148 -0.07305862
-0.024851508 -0.06858905 -0.02990964 -0.046721917 -0.10287891 -0.018719625 0.014808529 -0.012274334
-0.08992914 -0.015443548 -0.21708038 -0.017713543 -0.18705015 -0.059451427 -0.039104924 -0.069680184
-0.022642989 -0.107216954 -0.005352987 -0.075362265 0.018042192 0.0014213674 -0.062289312 -0.057570968
00000000: 6e61 1a3b a279 58be 729d 14bd b66c 993c
00000010: 129b 99bd 05c2 a4bd 5ac9 ccbd 4123 bebc
00000020: d50b 00be 4f2a 8abe ff45 953c 7117 3bbd
00000030: e471 cfbd 263a 5fbd 98d1 98bc 4012 1abe
00000040: e1f5 e5bc 798a acbd 4520 81bd 720a 76bd
00000050: 2810 103c 0507 183c 93d9 babd aa7a debd
00000060: b105 10bd db6f 9abd 4755 0fbe 4fb3 a0bd
00000070: 6e86 513c d8f8 35bd 36aa 86bd 94b6 afb9
00000080: a034 86b9 d4cd fdbd 8118 85be 8a10 813c
00000090: 2cca 84be 33f8 00be 8d44 09bd 75b3 b9bd
000000a0: ecab dabc 6890 8fbd aba1 9bbd 8723 61be
000000b0: 6c33 30bd 396e fcbc 2938 c4bd eff0 cfbd
000000c0: 9b3d 00bd 2369 22bd b365 46be 99b0 60bd
000000d0: c273 86bd 1518 88bd fa46 a6bc a988 cebd
000000e0: 17a3 59bd c9b8 87bd 0c63 96bd 7c99 29be
000000f0: f9b1 86bd 1dee bbbd 99c7 67be 3ce4 c9bd
00000100: 00a1 09be f4ed 1ebd d6d1 5e3c 03e7 e6bc
00000110: cba2 83bd 9157 3ebd ddaf a4bd 0f69 e3bd
00000120: ec21 a8bd dca2 6d3d 8e62 183e ce36 3ebe
00000130: c983 98bd 9b8b 01be 04c5 82bc b3b1 52bd
00000140: 7bc6 24bd 17c0 57bd d28a cabd 76c5 92bd
00000150: c2ec c1bd 42d7 2abd 54bc a2bd 84a6 08bd
00000160: b5f8 d3ba 4750 84bd 3b0a 87bd 3881 b5bc
00000170: 06b6 f3bd 0b05 14bd d380 92bd fd90 eabb
00000180: befe 06bd 188d 4abd c015 30bd 26db 83be
00000190: 663b 62bd 91fb eabd 2440 74bd c29f 95bd
000001a0: 6495 cbbc 6a78 8cbd 1005 f5bc 7b5f 3fbd
000001b0: 2eb2 d2bd e659 99bc 799f 723c 4a1a 49bc
000001c0: c52c b8bd ef06 7dbc 524a 5ebe fe1b 91bc
000001d0: 138a 3fbe 5783 73bd 7c2c 20bd 7cb4 8ebd
000001e0: ca7d b9bc 9094 dbbd 1c68 afbb 8857 9abd
000001f0: 38cd 933c 2d4d ba3a 1423 7fbd 89cf 6bbd

weight f4 [12, 128]
0.05429375 -0.0449487 0.0260479 0.107157424 -0.002986462 0.06307886 -0.019760791 0.0039733797
0.01893878 0.029026777 0.046036635 0.06624463 0.009461963 -0.06396571 0.0037339854 0.09510236
-0.030332007 0.002994846 -0.07626952 -0.085836776 0.05255232 0.097589076 -0.024393858 -0.025641015
-0.040145315 0.0029925345 -0.022400977 0.031736914 0.024291389 -0.011858199 -0.092199326 0.054228697
0.05159692 0.0055623073 -0.035531074 0.039813668 0.02351999 -0.05399164 0.093220696 0.037935633
0.021245202 0.035948884 0.02346931 -0.045008 0.034080777 0.041301925 -0.046350636 -0.008088389
0.013614901 0.026573667 -0.020161204 0.0012274156 -0.04317107 -0.054660175 0.04007252 0.008849581
0.020351376 0.04639356 0.084226444 -0.070751354 -0.014675583 -0.017347977 0.00068458606 0.013505095
-0.044114456 0.117625654 0.041273843 0.008334535 0.0053662187 -0.040333416 0.013228214 -0.07180709
-0.02154813 0.10576528 0.051282156 0.01025428 -0.01426534 -0.082982145 0.006653816 0.033751316
0.06796678 -0.09353727 0.0041207466 -0.008308656 -0.03721726 -0.033539467 -0.028296283 -0.020982469
-0.13439031 -0.046014287 0.070593484 -0.047965825 -0.018144136 -0.045500353 0.002674623 -0.041870948
0.015024624 0.01621879 -0.005804791 0.072028264 0.0009846453 -0.037763968 -0.009844786 0.045320045
0.07081618 0.0011617144 0.021168606 0.072818585 0.08793098 -0.030540284 -0.017375764 -0.030395951
0.03208327 -0.0094656935 0.0318714 0.012890778 0.06345375 -0.035160217 0.06450904 -0.016142009
0.041431066 -0.0199809 0.037569284 0.034113858 0.009572556 0.013030232 -0.043436844 0.012354783
0.015971277 0.10363559 0.033892043 0.050357066 0.015208592 0.012894919 -0.0051818592 0.0064779944
-0.04576591 0.04951892 -0.08373724 -0.021890523 0.011120367 0.006368176 0.025464753 -0.06598054
-0.008428992 -0.056382284 0.054671425 0.036065754 0.035207488 0.04494678 0.033215635 -0.04039855
0.012676783 0.01157983 0.09565612 0.006950213 -0.006253721 -0.07174321 0.06616289 -0.02298721
-0.10657531 -0.038392376 0.2103948 0.009537792 0.04290023 -0.022968888 -0.004775119 0.036229096
0.082033664 0.05516342 0.005845568 0.041398246 0.023017984 0.027005646 0.055625793 0.043268766
-0.0143168215 0.04567141 -0.013672744 -0.020582514 0.028959766 0.008993851 -0.06110565 0.0746239
-0.020347873 0.039652158 -0.045956727 -0.1247571 -0.030342754 0.053932555 0.013823618 -0.010255665
-0.062653884 -0.08366977 -0.037345394 -0.08941537 0.034973647 -0.01972403 -0.0715945 -0.011299141
0.011331309 0.099043116 0.08721182 -0.016424732 0.060862478 -0.05835796 -0.010483893 0.08358223
-0.06606773 0.061914288 0.049974862 -0.061987076 0.009345807 0.023501957 0.01033129 0.0061520836
-0.0351772 0.03348844 0.044437263 -0.01900682 -0.04863697 -0.056151714 -0.025697665 -0.07003252
-0.07448673 0.078363 -0.09208218 0.055127755 -0.0430955 -0.030553063 -0.012240662 -0.031412702
-0.05631538 0.033356577 -0.016520232 0.038703576 -0.0501969 0.0021425332 0.10946863 -0.0060628285
-0.0058404356 -0.04579093 -0.009366212 0.060196858 0.04010092 0.009918814 0.07447024 0.034248102
0.042670712 0.07593708 -0.016860913 0.054929752 0.024273869 0.01627477 0.06791403 0.112594485
00000000: 2063 5e3d 211c 38bd 6862 d53c 5a75 db3d
00000010: 85b8 43bb 7d2f 813d 62e1 a1bc 2033 823b
00000020: 8025 9b3c 90c9 ed3c e990 3c3d 44ab 873d
00000030: 5906 1b3c 7400 83bd e1b5 743b 07c5 c23d
00000040: d47a f8bc 2e45 443b 3233 9cbd 31cb afbd
00000050: 1a41 573d c8dc c73d a1d5 c7bc 1b0d d2bc
00000060: 6a6f 24bd 661e 443b 4182 b7bc 91fe 013d
00000070: bcfe c63c e448 42bc 00d3 bcbd e91e 5e3d
00000080: 4b57 533d 0444 b63b 0889 11bd a813 233d
00000090: feac c03c 5726 5dbd 7eea be3d 6562 1b3d
000000a0: 6b0a ae3c 233f 133d b642 c03c 4f5a 38bd
000000b0: 4998 0b3d 352c 293d 2ada 3dbd 2a85 04bc
000000c0: 0911 5f3c 05b1 d93c 1c29 a5bc 3ce1 a03a
000000d0: 26d4 30bd 59e3 5fbd 1523 243d d5fd 103c
000000e0: eeb7 a63c 2c07 3e3d ea7e ac3d 16e6 90bd
000000f0: db71 70bc 581d 8ebc cb75 333a 7944 5d3c
00000100: 5cb1 34bd b8e5 f03d c30e 293d 938d 083c
00000110: 1bd7 af3b a734 25bd 27bb 583c 980f 93bd
00000120: b485 b0bc 789b d83d 3d0d 523d 9101 283c
00000130: 2cb9 69bc 8bf2 a9bd 4108 da3b d23e 0a3d
00000140: 2b32 8b3d 7890 bfbd 5407 873b 0721 08bc
00000150: 2071 18bd ae60 09bd 9bcd e7bc 6de3 abbc
00000160: 9d9d 09be 7a79 3cbd 5193 903d d077 44bd
00000170: 03a3 94bc 945e 3abd ba48 2f3b df80 2bbd
00000180: d729 763c 45dd 843c 1e36 bebb 8e83 933d
00000190: 370f 813a 64ae 1abd 064c 21bc 83a1 393d
000001a0: 1308 913d ab44 983a c969 ad3c e921 953d
000001b0: 2815 b43d 9e2f fabc 9e57 8ebc ee00 f9bc
000001c0: bf69 033d ff15 1bbc 968b 023d d733 533c
000001d0: 0af4 813d 2904 10bd 511d 843d 3f3c 84bc
000001e0: 9fb3 293d fcae a3bc 40e2 193d f9ba 0b3d
000001f0: 36d6 1c3c c17c 553c d5ea 31bd b76b 4a3c
00000200: 32d6 823c e53e d43d 62d2 0a3d 3643 4e3d
00000210: 752d 793c 3645 533c 96cc a9bb 5b45 d43b
00000220: 0975 3bbd 5ad4 4a3d 6e7e abbd c153 b3bc
00000230: 3332 363c 22ac d03b 759b d03c ce20 87bd
00000240: c119 0abc 1cf1 66bd 25ef 5f3d afb9 133d
00000250: ba35 103d 1d1a 383d 1e0d 083d f378 25bd
00000260: 48b2 4f3c 54b9 3d3c 5be7 c33d 9dbe e33b
00000270: 04ec ccbb 1bee 92bd 6980 873d ac4f bcbc
00000280: 2844 dabd 5341 1dbd bc71 573e 6644 1c3c
00000290: 27b8 2f3d 4029 bcbc 9a78 9cbb f664 143d
000002a0: 4401 a83d 0af3 613d 2e8c bf3b 3591 293d
000002b0: 3690 bc3c f23a dd3c dfd7 633d 973a 313d
000002c0: 1a91 6abc f211 3b3d a503 60bc a99c a8bc
000002d0: 083d ed3c f25a 133c eb49 7abd 6ad4 983d
000002e0: 95b0 a6bc 4d6a 223d 1f3d 3cbd a780 ffbd
000002f0: 5e91 f8bc 62e8 5c3d 757c 623c 6007 28bc
00000300: ae50 80bd 0e5b abbd 7cf7 18bd 681f b7bd
00000310: 8740 0f3d 4a94 a1bc 23a0 92bd 0820 39bc
00000320: f4a6 393c 1ed7 ca3d 1c9c b23d 298d 86bc
00000330: ef4a 793d c208 6fbd a2c4 2bbc 292d ab3d
00000340: 854e 87bd d699 7d3d 71b2 4c3d 29e6 7dbd
00000350: 281f 193c 2d87 c03c 9244 293c 6b97 c93b
00000360: f815 10bd 2d2b 093d d903 363d 31b4 9bbc
00000370: 8f37 47bd 57ff 65bd e983 d2bc 366d 8fbd
00000380: 808c 98bd c87c a03d 9595 bcbd a4cd 613d
00000390: e884 30bd 6b4a fabc 0f8d 48bc 9baa 00bd
000003a0: f5aa 66bd e8a0 083d 7055 87bc a487 1e3d
000003b0: 449b 4dbd be69 0c3b 1731 e03d b1aa c6bb
000003c0: 2061 bfbb 458f 3bbd be74 19bc fb90 763d
000003d0: dd40 243d 8582 223c da83 983d bd47 0c3d
000003e0: 7cc7 2e3d e684 9b3d e61f 8abc 05fe 603d
000003f0: fed9 c63c ab52 853c 8316 8b3d f097 e63d

bias f4 [12]
-0.02590122 -0.114343464 -0.30097583 -0.17744157 -0.27466697 -0.2190507 0.10929461 -0.17626907
-0.23470779 -0.16135707 -0.16565283 -0.21647409
00000000: cc2e d4bc e82c eabd 8119 9abe 3eb3 35be
00000010: 26a1 8cbe d44e 60be dad5 df3d e17f 34be
00000020: 3d57 70be ca3a 25be e5a0 29be 62ab 5dbe

weight f4 [128, 270]
0.0051476057 -0.016862022 0.2843164 -0.013866232 -0.31216392 -1.1369228 0.2264411 -0.10056051
-0.13435082 -0.2748677 0.12217915 0.1368067 -0.060413655 0.19824804 0.27560714 0.15965177
0.4944902 -0.019352205 0.02098674 0.22869307 0.038990404 0.27814248 -0.020222578 -0.14250702
-0.27253166 -0.019541271 -0.0130201625 0.16417567 0.10979497 0.06813633 0.28524214 0.28436813
0.059559282 -0.007375421 -0.0611138 -0.008830993 0.009647561 -0.037156202 0.043079805 -0.0075643016
-0.02846352 -0.025863752 0.013939456 -0.020882307 -0.0013971991 0.027837783 -0.07573286 0.41506413
-0.2589307 -0.26062378 -0.41701797 0.06473818 0.3116155 -0.168581 -0.023273047 0.13998206
0.062495623 0.011990107 0.18410966 0.34546512 0.115680926 0.39861867 -0.008040401 0.04505356
0.34574687 0.011708344 0.0046946816 -0.10382677 -0.1936537 -0.2835766 0.08017143 -0.048700824
0.06635805 0.0064747483 -0.03582882 -0.04124329 0.039601162 -0.01466779 -0.05100707 -0.04392007
0.00021883633 -0.032428563 -0.014518929 0.002955905 -0.015274566 -0.059996344 0.017231364 -0.002422564
-0.023694647 -0.008915663 0.05235902 -0.004964459 0.5066678 -0.17274141 -0.20018865 -0.15658204
0.01800395 0.42584854 -0.17727327 0.030399922 0.10596095 0.019722337 0.03279011 0.07246353
0.27974364 0.05238613 0.27263272 -0.069320135 0.037739083 0.3306492 0.02748056 0.061251435
0.024878407 -0.120202646 -0.21136212 -0.050814062 -0.11340783 0.09590122 0.11913116 -0.013535563
-0.07043243 0.0740127 -0.06790053 -0.04807482 -0.028778488 -0.019044168 -0.031993702 -0.023485798
0.011971637 -0.027799906 -0.050719794 0.015873943 0.01122127 -0.038107634 0.02793253 0.0070978724
0.16715753 0.38456747 -0.048127297 -0.039288618 -0.08020783 -0.1395031 0.46045727 -0.12753807
0.12511885 0.038986072 0.027572291 -0.01857972 0.031274445 0.27048442 0.07059404 0.12672985
-0.09987087 -0.09771248 0.14720522 -0.046488777 0.14356333 0.06561991 -0.093702026 -0.031366363
-0.080963984 -0.11897916 0.11360194 0.12758216 -0.025933482 0.011529149 0.025431149 -0.11240552
-0.03357338 -0.02116498 -0.03590359 -0.031299062 -0.01822281 0.0017912695 -0.023692142 -0.041641105
0.016677756 0.010439359 -0.05070769 0.029766927 -0.08909121 0.13259321 0.120399795 -0.052478615
0.019685633 -0.118172765 -0.26348972 0.47387284 -0.14802895 0.13776092 0.073041186 0.009989871
-0.13126513 -0.048498716 0.25938568 0.037600376 0.089011826 -0.03180744 -0.06465479 0.09961815
-0.0130172735 0.11103849 -0.006368274 -0.077535965 0.0591694 -0.06278142 -0.11595425 0.16928355
0.011585235 -0.03935003 0.048142657 0.04997044 -0.0813966 -0.030863263 -0.021227345 -0.028317988
-0.043947555 -0.0073104785 -0.011642372 -0.016949562 -0.02456959 0.0065978975 -0.014357202 -0.045605205
0.008266396 -0.23192993 0.1531754 -0.036950737 -0.034336463 -0.015494694 -0.13344619 -0.38665456
0.44607416 -0.12417691 0.19968656 0.061689004 -0.003513978 -0.13594815 -0.07075825 0.18157025
0.08228581 0.06728515 -0.044514693 -0.1367326 0.05572922 -0.034449138 -0.030639853 -0.03592732
-0.056892667 0.0682903 0.06384081 -0.18644816 0.13804486 -0.034289904 0.017112141 0.032084543
00000000: 3fad a83b 3922 8abc eb91 913e 312f 63bc
00000010: f3d3 9fbe b086 91bf 2de0 673e abf2 cdbd
00000020: 4393 09be 76bb 8cbe 1039 fa3d 0e17 0c3e
00000030: 4f74 77bd 8901 4b3e 611c 8d3e c17b 233e
00000040: d22d fd3e 8488 9ebc 62ec ab3c 842e 6a3e
00000050: 67b4 1f3d b168 8e3e d2a9 a5bc 5ced 11be
00000060: 4589 8bbe 0415 a0bc 8552 55bc ab1d 283e
00000070: 2fdc e03d 0f8b 8b3d 420b 923e b398 913e
00000080: 6ff4 733d 84ad f1bb 7752 7abd dfaf 10bc
00000090: ce10 1e3c 1a31 18bd 7374 303d f6dd f7bb
000000a0: 542c e9bc 38e0 d3bc 5162 643c 5f11 abbc
000000b0: 3922 b7ba 100c e43c d419 9bbd 4983 d43e
000000c0: 9192 84be 7b70 85be 6183 d5be 7395 843d
000000d0: 118c 9f3e 7fa0 2cbe 1ea7 bebc 7557 0f3e
000000e0: 69fb 7f3d 2772 443c 3e87 3c3e cee0 b03e
000000f0: 1fea ec3d bf17 cc3e e3bb 03bc 158a 383d
00000100: bc05 b13e 5bd4 3f3c d8d5 993b 21a3 d4bd
00000110: 284d 46be f430 91be eb30 a43d 847a 47bd
00000120: bbe6 873d 202a d43b 3ec1 12bd b9ee 28bd
00000130: d434 223d 2c51 70bc caec 50bd 88e5 33bd
00000140: 6e77 6539 d0d3 04bd cde0 6dbc dbb7 413b
00000150: 2c42 7abc babe 75bd ca28 8d3c e1c3 1ebb
00000160: 471b c2bc 0013 12bc 6976 563d e7ac a2bb
00000170: fbb4 013f 20e3 30be 41fe 4cbe 0b57 20be
00000180: 057d 933c d208 da3e 2087 35be 4209 f93c
00000190: 0e02 d93d bd90 a13c ec4e 063d c267 943d
000001a0: 8f3a 8f3e d792 563d 8496 8b3e b7f7 8dbd
000001b0: 4c94 1a3d da4a a93e e91e e13c c9e2 7a3d
000001c0: cdcd cb3c ce2c f6bd 506f 58be 6822 50bd
000001d0: 5d42 e8bd dc67 c43d 0afb f33d 44c4 5dbc
000001e0: e13e 90bd f893 973d 6f0f 8bbd 1aea 44bd
000001f0: ddc0 ebbc 8402 9cbc d40b 03bd 4a65 c0bc
00000200: af24 443c a1bc e3bc 8fbf 4fbd 120a 823c
00000210: 6bd9 373c c016 1cbd c3d2 e43c 4595 e83b
00000220: 582b 2b3e 07e6 c43e 2121 45bd 1aed 20bd
00000230: 0144 a4bd e7d9 0ebe 0ec1 eb3e 5799 02be
00000240: 281f 003e dcaf 1f3d 49df e13c 7f34 98bc
00000250: a219 003d ef7c 8a3e 9c93 903d 78c5 013e
00000260: 1989 ccbd 7b1d c8bd f7bc 163e 046b 3ebd
00000270: 4402 133e bb63 863d d9e6 bfbd 047a 00bd
00000280: 72d0 a5bd 59ab f3bd 22a8 e83d e6a4 023e
00000290: 7472 d4bc c1e4 3c3c fc54 d03c de34 e6bd
000002a0: 3e84 09bd 2e62 adbc a50f 13bd 7233 00bd
000002b0: 0148 95bc 08c9 ea3a 0616 c2bc dd8f 2abd
000002c0: ca9f 883c d809 2b3c deb2 4fbd c5d9 f33c
000002d0: 7475 b6bd 84c6 073e 2b94 f63d d1f3 56bd
000002e0: c443 a13c 9004 f2bd 20e8 86be 769f f23e
000002f0: e794 17be 3311 0d3e 9e96 953d 8eac 233c
00000300: 5e6a 06be 97a6 46bd 33ce 843e da02 1a3d
00000310: d54b b63d 8548 02bd bb69 84bd 9a04 cc3d
00000320: 6746 55bc 2668 e33d f4ac d0bb 2dcb 9ebd
00000330: 9d5b 723d 8c93 80bd 6c79 edbd ab58 2d3e
00000340: ffcf 3d3c 7f2d 21bd 3c31 453d cead 4c3d
00000350: 43b3 a6bd f4d4 fcbc f8e4 adbc 20fb e7bc
00000360: 5a02 34bd bd8c efbb a6bf 3ebc cfd9 8abc
00000370: 2a46 c9bc 2d33 d83b 783a 6bbc 86cc 3abd
00000380: c76f 073c 0a7f 6dbe 03da 1c3e a859 17bd
00000390: 64a4 0cbd 75dd 7dbc 1ea6 08be 96f7 c5be
000003a0: d563 e43e 7750 febd a27a 4c3e 9cad 7c3d
000003b0: c54a 66bb fe35 0bbe b4e9 90bd 8ded 393e
000003c0: 7685 a83d cccc 893d 0a55 36bd a103 0cbe
000003d0: 5344 643d 8a1a 0dbd 6e00 fbbc 8728 13bd
000003e0: 4908 69bd c9db 8b3d f8be 823d 44ec 3ebe
000003f0: a25b 0d3e 9273 0cbd c32e 8c3c 156b 033d
